…
 block2a_expand_bn (BatchNormal  (None, 192, 192, 14  576        ['block2a_expand_conv[0][0]']    
 ization)                       4)                                                                
                                                                                                  
 block2a_expand_activation (Act  (None, 192, 192, 14  0          ['block2a_expand_bn[0][0]']      
 ivation)                       4)                                                                
                                                                                                  
 block2a_dwconv (DepthwiseConv2  (None, 96, 96, 144)  1296       ['block2a_expand_activation[0][0]
 D)                                                              ']                               
                                                                                                  
 block2a_bn (BatchNormalization  (None, 96, 96, 144)  576        ['block2a_dwconv[0][0]']         
 )                                                                                                
                                                                                                  
 block2a_activation (Activation  (None, 96, 96, 144)  0          ['block2a_bn[0][0]']             
 )                                                                                                
                                                                                                  
 block2a_se_squeeze (GlobalAver  (None, 144)         0           ['block2a_activation[0][0]']     
 agePooling2D)                                                                                    
                                                                                                  
 block2a_se_reshape (Reshape)   (None, 1, 1, 144)    0           ['block2a_se_squeeze[0][0]']     
                                                                                                  
 block2a_se_reduce (Conv2D)     (None, 1, 1, 6)      870         ['block2a_se_reshape[0][0]']     
                                                                                                  
 block2a_se_expand (Conv2D)     (None, 1, 1, 144)    1008        ['block2a_se_reduce[0][0]']      
                                                                                                  
 block2a_se_excite (Multiply)   (None, 96, 96, 144)  0           ['block2a_activation[0][0]',     
                                                                  'block2a_se_expand[0][0]']      
                                                                                                  
 block2a_project_conv (Conv2D)  (None, 96, 96, 32)   4608        ['block2a_se_excite[0][0]']      
                                                                                                  
 block2a_project_bn (BatchNorma  (None, 96, 96, 32)  128         ['block2a_project_conv[0][0]']   
 lization)                                                                                        
                                                                                                  
 block2b_expand_conv (Conv2D)   (None, 96, 96, 192)  6144        ['block2a_project_bn[0][0]']     
                                                                                                  
 block2b_expand_bn (BatchNormal  (None, 96, 96, 192)  768        ['block2b_expand_conv[0][0]']    
 ization)                                                                                         
                                                                                                  
 block2b_expand_activation (Act  (None, 96, 96, 192)  0          ['block2b_expand_bn[0][0]']      
 ivation)                                                                                         
                                                                                                  
 block2b_dwconv (DepthwiseConv2  (None, 96, 96, 192)  1728       ['block2b_expand_activation[0][0]
 D)                                                              ']                               
                                                                                                  
 block2b_bn (BatchNormalization  (None, 96, 96, 192)  768        ['block2b_dwconv[0][0]']         
 )                                                                                                
                                                                                                  
 block2b_activation (Activation  (None, 96, 96, 192)  0          ['block2b_bn[0][0]']             
 )                                                                                                
                                                                                                  
 block2b_se_squeeze (GlobalAver  (None, 192)         0           ['block2b_activation[0][0]']     
 agePooling2D)                                                                                    
                                                                                                  
 block2b_se_reshape (Reshape)   (None, 1, 1, 192)    0           ['block2b_se_squeeze[0][0]']     
                                                                                                  
 block2b_se_reduce (Conv2D)     (None, 1, 1, 8)      1544        ['block2b_se_reshape[0][0]']     
                                                                                                  
 block2b_se_expand (Conv2D)     (None, 1, 1, 192)    1728        ['block2b_se_reduce[0][0]']      
                                                                                                  
 block2b_se_excite (Multiply)   (None, 96, 96, 192)  0           ['block2b_activation[0][0]',     
                                                                  'block2b_se_expand[0][0]']      
                                                                                                  
 block2b_project_conv (Conv2D)  (None, 96, 96, 32)   6144        ['block2b_se_excite[0][0]']      
                                                                                                  
 block2b_project_bn (BatchNorma  (None, 96, 96, 32)  128         ['block2b_project_conv[0][0]']   
 lization)                                                                                        
                                                                                                  
 block2b_drop (FixedDropout)    (None, 96, 96, 32)   0           ['block2b_project_bn[0][0]']     
                                                                                                  
 block2b_add (Add)              (None, 96, 96, 32)   0           ['block2b_drop[0][0]',           
                                                                  'block2a_project_bn[0][0]']     
                                                                                                  
 block2c_expand_conv (Conv2D)   (None, 96, 96, 192)  6144        ['block2b_add[0][0]']            
                                                                                                  
 block2c_expand_bn (BatchNormal  (None, 96, 96, 192)  768        ['block2c_expand_conv[0][0]']    
 ization)                                                                                         
                                                                                                  
 block2c_expand_activation (Act  (None, 96, 96, 192)  0          ['block2c_expand_bn[0][0]']      
 ivation)                                                                                         
                                                                                                  
 block2c_dwconv (DepthwiseConv2  (None, 96, 96, 192)  1728       ['block2c_expand_activation[0][0]
 D)                                                              ']                               
                                                                                                  
 block2c_bn (BatchNormalization  (None, 96, 96, 192)  768        ['block2c_dwconv[0][0]']         
 )                                                                                                
                                                                                                  
 block2c_activation (Activation  (None, 96, 96, 192)  0          ['block2c_bn[0][0]']             
 )                                                                                                
                                                                                                  
 block2c_se_squeeze (GlobalAver  (None, 192)         0           ['block2c_activation[0][0]']     
 agePooling2D)                                                                                    
                                                                                                  
 block2c_se_reshape (Reshape)   (None, 1, 1, 192)    0           ['block2c_se_squeeze[0][0]']     
                                                                                                  
 block2c_se_reduce (Conv2D)     (None, 1, 1, 8)      1544        ['block2c_se_reshape[0][0]']     
                                                                                                  
 block2c_se_expand (Conv2D)     (None, 1, 1, 192)    1728        ['block2c_se_reduce[0][0]']      
                                                                                                  
 block2c_se_excite (Multiply)   (None, 96, 96, 192)  0           ['block2c_activation[0][0]',     
                                                                  'block2c_se_expand[0][0]']      
                                                                                                  
 block2c_project_conv (Conv2D)  (None, 96, 96, 32)   6144        ['block2c_se_excite[0][0]']      
                                                                                                  
 block2c_project_bn (BatchNorma  (None, 96, 96, 32)  128         ['block2c_project_conv[0][0]']   
 lization)                                                                                        
                                                                                                  
 block2c_drop (FixedDropout)    (None, 96, 96, 32)   0           ['block2c_project_bn[0][0]']     
                                                                                                  
 block2c_add (Add)              (None, 96, 96, 32)   0           ['block2c_drop[0][0]',           
                                                                  'block2b_add[0][0]']            
                                                                                                  
 block3a_expand_conv (Conv2D)   (None, 96, 96, 192)  6144        ['block2c_add[0][0]']            
                                                                                                  
 block3a_expand_bn (BatchNormal  (None, 96, 96, 192)  768        ['block3a_expand_conv[0][0]']    
 ization)                                                                                         
                                                                                                  
 block3a_expand_activation (Act  (None, 96, 96, 192)  0          ['block3a_expand_bn[0][0]']      
 ivation)                                                                                         
                                                                                                  
 block3a_dwconv (DepthwiseConv2  (None, 48, 48, 192)  4800       ['block3a_expand_activation[0][0]
 D)                                                              ']                               
                                                                                                  
 block3a_bn (BatchNormalization  (None, 48, 48, 192)  768        ['block3a_dwconv[0][0]']         
 )                                                                                                
                                                                                                  
 block3a_activation (Activation  (None, 48, 48, 192)  0          ['block3a_bn[0][0]']             
 )                                                                                                
                                                                                                  
 block3a_se_squeeze (GlobalAver  (None, 192)         0           ['block3a_activation[0][0]']     
 agePooling2D)                                                                                    
                                                                                                  
 block3a_se_reshape (Reshape)   (None, 1, 1, 192)    0           ['block3a_se_squeeze[0][0]']     
                                                                                                  
 block3a_se_reduce (Conv2D)     (None, 1, 1, 8)      1544        ['block3a_se_reshape[0][0]']     
                                                                                                  
 block3a_se_expand (Conv2D)     (None, 1, 1, 192)    1728        ['block3a_se_reduce[0][0]']      
                                                                                                  
 block3a_se_excite (Multiply)   (None, 48, 48, 192)  0           ['block3a_activation[0][0]',     
                                                                  'block3a_se_expand[0][0]']      
                                                                                                  
 block3a_project_conv (Conv2D)  (None, 48, 48, 48)   9216        ['block3a_se_excite[0][0]']      
                                                                                                  
 block3a_project_bn (BatchNorma  (None, 48, 48, 48)  192         ['block3a_project_conv[0][0]']   
 lization)                                                                                        
                                                                                                  
 block3b_expand_conv (Conv2D)   (None, 48, 48, 288)  13824       ['block3a_project_bn[0][0]']     
                                                                                                  
 block3b_expand_bn (BatchNormal  (None, 48, 48, 288)  1152       ['block3b_expand_conv[0][0]']    
 ization)                                                                                         
                                                                                                  
 block3b_expand_activation (Act  (None, 48, 48, 288)  0          ['block3b_expand_bn[0][0]']      
 ivation)                                                                                         
                                                                                                  
 block3b_dwconv (DepthwiseConv2  (None, 48, 48, 288)  7200       ['block3b_expand_activation[0][0]
 D)                                                              ']                               
                                                                                                  
 block3b_bn (BatchNormalization  (None, 48, 48, 288)  1152       ['block3b_dwconv[0][0]']         
 )                                                                                                
                                                                                                  
 block3b_activation (Activation  (None, 48, 48, 288)  0          ['block3b_bn[0][0]']             
 )                                                                                                
                                                                                                  
 block3b_se_squeeze (GlobalAver  (None, 288)         0           ['block3b_activation[0][0]']     
 agePooling2D)                                                                                    
                                                                                                  
 block3b_se_reshape (Reshape)   (None, 1, 1, 288)    0           ['block3b_se_squeeze[0][0]']     
                                                                                                  
 block3b_se_reduce (Conv2D)     (None, 1, 1, 12)     3468        ['block3b_se_reshape[0][0]']     
                                                                                                  
 block3b_se_expand (Conv2D)     (None, 1, 1, 288)    3744        ['block3b_se_reduce[0][0]']      
                                                                                                  
 block3b_se_excite (Multiply)   (None, 48, 48, 288)  0           ['block3b_activation[0][0]',     
                                                                  'block3b_se_expand[0][0]']      
                                                                                                  
 block3b_project_conv (Conv2D)  (None, 48, 48, 48)   13824       ['block3b_se_excite[0][0]']      
                                                                                                  
 block3b_project_bn (BatchNorma  (None, 48, 48, 48)  192         ['block3b_project_conv[0][0]']   
 lization)                                                                                        
                                                                                                  
 block3b_drop (FixedDropout)    (None, 48, 48, 48)   0           ['block3b_project_bn[0][0]']     
                                                                                                  
 block3b_add (Add)              (None, 48, 48, 48)   0           ['block3b_drop[0][0]',           
                                                                  'block3a_project_bn[0][0]']     
                                                                                                  
 block3c_expand_conv (Conv2D)   (None, 48, 48, 288)  13824       ['block3b_add[0][0]']            
                                                                                                  
 block3c_expand_bn (BatchNormal  (None, 48, 48, 288)  1152       ['block3c_expand_conv[0][0]']    
 ization)                                                                                         
                                                                                                  
 block3c_expand_activation (Act  (None, 48, 48, 288)  0          ['block3c_expand_bn[0][0]']      
 ivation)                                                                                         
                                                                                                  
 block3c_dwconv (DepthwiseConv2  (None, 48, 48, 288)  7200       ['block3c_expand_activation[0][0]
 D)                                                              ']                               
                                                                                                  
 block3c_bn (BatchNormalization  (None, 48, 48, 288)  1152       ['block3c_dwconv[0][0]']         
 )                                                                                                
                                                                                                  
 block3c_activation (Activation  (None, 48, 48, 288)  0          ['block3c_bn[0][0]']             
 )                                                                                                
                                                                                                  
 block3c_se_squeeze (GlobalAver  (None, 288)         0           ['block3c_activation[0][0]']     
 agePooling2D)                                                                                    
                                                                                                  
 block3c_se_reshape (Reshape)   (None, 1, 1, 288)    0           ['block3c_se_squeeze[0][0]']     
                                                                                                  
 block3c_se_reduce (Conv2D)     (None, 1, 1, 12)     3468        ['block3c_se_reshape[0][0]']     
                                                                                                  
 block3c_se_expand (Conv2D)     (None, 1, 1, 288)    3744        ['block3c_se_reduce[0][0]']      
                                                                                                  
 block3c_se_excite (Multiply)   (None, 48, 48, 288)  0           ['block3c_activation[0][0]',     
                                                                  'block3c_se_expand[0][0]']      
                                                                                                  
 block3c_project_conv (Conv2D)  (None, 48, 48, 48)   13824       ['block3c_se_excite[0][0]']      
                                                                                                  
 block3c_project_bn (BatchNorma  (None, 48, 48, 48)  192         ['block3c_project_conv[0][0]']   
 lization)                                                                                        
                                                                                                  
 block3c_drop (FixedDropout)    (None, 48, 48, 48)   0           ['block3c_project_bn[0][0]']     
                                                                                                  
 block3c_add (Add)              (None, 48, 48, 48)   0           ['block3c_drop[0][0]',           
                                                                  'block3b_add[0][0]']            
                                                                                                  
 block4a_expand_conv (Conv2D)   (None, 48, 48, 288)  13824       ['block3c_add[0][0]']            
                                                                                                  
 block4a_expand_bn (BatchNormal  (None, 48, 48, 288)  1152       ['block4a_expand_conv[0][0]']    
 ization)                                                                                         
                                                                                                  
 block4a_expand_activation (Act  (None, 48, 48, 288)  0          ['block4a_expand_bn[0][0]']      
 ivation)                                                                                         
                                                                                                  
 block4a_dwconv (DepthwiseConv2  (None, 24, 24, 288)  2592       ['block4a_expand_activation[0][0]
 D)                                                              ']                               
                                                                                                  
 block4a_bn (BatchNormalization  (None, 24, 24, 288)  1152       ['block4a_dwconv[0][0]']         
 )                                                                                                
                                                                                                  
 block4a_activation (Activation  (None, 24, 24, 288)  0          ['block4a_bn[0][0]']             
 )                                                                                                
                                                                                                  
 block4a_se_squeeze (GlobalAver  (None, 288)         0           ['block4a_activation[0][0]']     
 agePooling2D)                                                                                    
                                                                                                  
 block4a_se_reshape (Reshape)   (None, 1, 1, 288)    0           ['block4a_se_squeeze[0][0]']     
                                                                                                  
 block4a_se_reduce (Conv2D)     (None, 1, 1, 12)     3468        ['block4a_se_reshape[0][0]']     
                                                                                                  
 block4a_se_expand (Conv2D)     (None, 1, 1, 288)    3744        ['block4a_se_reduce[0][0]']      
                                                                                                  
 block4a_se_excite (Multiply)   (None, 24, 24, 288)  0           ['block4a_activation[0][0]',     
                                                                  'block4a_se_expand[0][0]']      
                                                                                                  
 block4a_project_conv (Conv2D)  (None, 24, 24, 96)   27648       ['block4a_se_excite[0][0]']      
                                                                                                  
 block4a_project_bn (BatchNorma  (None, 24, 24, 96)  384         ['block4a_project_conv[0][0]']   
 lization)                                                                                        
                                                                                                  
 block4b_expand_conv (Conv2D)   (None, 24, 24, 576)  55296       ['block4a_project_bn[0][0]']     
                                                                                                  
 block4b_expand_bn (BatchNormal  (None, 24, 24, 576)  2304       ['block4b_expand_conv[0][0]']    
 ization)                                                                                         
                                                                                                  
 block4b_expand_activation (Act  (None, 24, 24, 576)  0          ['block4b_expand_bn[0][0]']      
 ivation)                                                                                         
                                                                                                  
 block4b_dwconv (DepthwiseConv2  (None, 24, 24, 576)  5184       ['block4b_expand_activation[0][0]
 D)                                                              ']                               
                                                                                                  
 block4b_bn (BatchNormalization  (None, 24, 24, 576)  2304       ['block4b_dwconv[0][0]']         
 )                                                                                                
                                                                                                  
 block4b_activation (Activation  (None, 24, 24, 576)  0          ['block4b_bn[0][0]']             
 )                                                                                                
                                                                                                  
 block4b_se_squeeze (GlobalAver  (None, 576)         0           ['block4b_activation[0][0]']     
 agePooling2D)                                                                                    
                                                                                                  
 block4b_se_reshape (Reshape)   (None, 1, 1, 576)    0           ['block4b_se_squeeze[0][0]']     
                                                                                                  
 block4b_se_reduce (Conv2D)     (None, 1, 1, 24)     13848       ['block4b_se_reshape[0][0]']     
                                                                                                  
 block4b_se_expand (Conv2D)     (None, 1, 1, 576)    14400       ['block4b_se_reduce[0][0]']      
                                                                                                  
 block4b_se_excite (Multiply)   (None, 24, 24, 576)  0           ['block4b_activation[0][0]',     
                                                                  'block4b_se_expand[0][0]']      
                                                                                                  
 block4b_project_conv (Conv2D)  (None, 24, 24, 96)   55296       ['block4b_se_excite[0][0]']      
                                                                                                  
 block4b_project_bn (BatchNorma  (None, 24, 24, 96)  384         ['block4b_project_conv[0][0]']   
 lization)                                                                                        
                                                                                                  
 block4b_drop (FixedDropout)    (None, 24, 24, 96)   0           ['block4b_project_bn[0][0]']     
                                                                                                  
 block4b_add (Add)              (None, 24, 24, 96)   0           ['block4b_drop[0][0]',           
                                                                  'block4a_project_bn[0][0]']     
                                                                                                  
 block4c_expand_conv (Conv2D)   (None, 24, 24, 576)  55296       ['block4b_add[0][0]']            
                                                                                                  
 block4c_expand_bn (BatchNormal  (None, 24, 24, 576)  2304       ['block4c_expand_conv[0][0]']    
 ization)                                                                                         
                                                                                                  
 block4c_expand_activation (Act  (None, 24, 24, 576)  0          ['block4c_expand_bn[0][0]']      
 ivation)                                                                                         
                                                                                                  
 block4c_dwconv (DepthwiseConv2  (None, 24, 24, 576)  5184       ['block4c_expand_activation[0][0]
 D)                                                              ']                               
                                                                                                  
 block4c_bn (BatchNormalization  (None, 24, 24, 576)  2304       ['block4c_dwconv[0][0]']         
 )                                                                                                
                                                                                                  
 block4c_activation (Activation  (None, 24, 24, 576)  0          ['block4c_bn[0][0]']             
 )                                                                                                
                                                                                                  
 block4c_se_squeeze (GlobalAver  (None, 576)         0           ['block4c_activation[0][0]']     
 agePooling2D)                                                                                    
                                                                                                  
 block4c_se_reshape (Reshape)   (None, 1, 1, 576)    0           ['block4c_se_squeeze[0][0]']     
                                                                                                  
 block4c_se_reduce (Conv2D)     (None, 1, 1, 24)     13848       ['block4c_se_reshape[0][0]']     
                                                                                                  
 block4c_se_expand (Conv2D)     (None, 1, 1, 576)    14400       ['block4c_se_reduce[0][0]']      
                                                                                                  
 block4c_se_excite (Multiply)   (None, 24, 24, 576)  0           ['block4c_activation[0][0]',     
                                                                  'block4c_se_expand[0][0]']      
                                                                                                  
 block4c_project_conv (Conv2D)  (None, 24, 24, 96)   55296       ['block4c_se_excite[0][0]']      
                                                                                                  
 block4c_project_bn (BatchNorma  (None, 24, 24, 96)  384         ['block4c_project_conv[0][0]']   
 lization)                                                                                        
                                                                                                  
 block4c_drop (FixedDropout)    (None, 24, 24, 96)   0           ['block4c_project_bn[0][0]']     
                                                                                                  
 block4c_add (Add)              (None, 24, 24, 96)   0           ['block4c_drop[0][0]',           
                                                                  'block4b_add[0][0]']            
                                                                                                  
 block4d_expand_conv (Conv2D)   (None, 24, 24, 576)  55296       ['block4c_add[0][0]']            
                                                                                                  
 block4d_expand_bn (BatchNormal  (None, 24, 24, 576)  2304       ['block4d_expand_conv[0][0]']    
 ization)                                                                                         
                                                                                                  
 block4d_expand_activation (Act  (None, 24, 24, 576)  0          ['block4d_expand_bn[0][0]']      
 ivation)                                                                                         
                                                                                                  
 block4d_dwconv (DepthwiseConv2  (None, 24, 24, 576)  5184       ['block4d_expand_activation[0][0]
 D)                                                              ']                               
                                                                                                  
 block4d_bn (BatchNormalization  (None, 24, 24, 576)  2304       ['block4d_dwconv[0][0]']         
 )                                                                                                
                                                                                                  
 block4d_activation (Activation  (None, 24, 24, 576)  0          ['block4d_bn[0][0]']             
 )                                                                                                
                                                                                                  
 block4d_se_squeeze (GlobalAver  (None, 576)         0           ['block4d_activation[0][0]']     
 agePooling2D)                                                                                    
                                                                                                  
 block4d_se_reshape (Reshape)   (None, 1, 1, 576)    0           ['block4d_se_squeeze[0][0]']     
                                                                                                  
 block4d_se_reduce (Conv2D)     (None, 1, 1, 24)     13848       ['block4d_se_reshape[0][0]']     
                                                                                                  
 block4d_se_expand (Conv2D)     (None, 1, 1, 576)    14400       ['block4d_se_reduce[0][0]']      
                                                                                                  
 block4d_se_excite (Multiply)   (None, 24, 24, 576)  0           ['block4d_activation[0][0]',     
                                                                  'block4d_se_expand[0][0]']      
                                                                                                  
 block4d_project_conv (Conv2D)  (None, 24, 24, 96)   55296       ['block4d_se_excite[0][0]']      
                                                                                                  
 block4d_project_bn (BatchNorma  (None, 24, 24, 96)  384         ['block4d_project_conv[0][0]']   
 lization)                                                                                        
                                                                                                  
 block4d_drop (FixedDropout)    (None, 24, 24, 96)   0           ['block4d_project_bn[0][0]']     
                                                                                                  
 block4d_add (Add)              (None, 24, 24, 96)   0           ['block4d_drop[0][0]',           
                                                                  'block4c_add[0][0]']            
                                                                                                  
 block4e_expand_conv (Conv2D)   (None, 24, 24, 576)  55296       ['block4d_add[0][0]']            
                                                                                                  
 block4e_expand_bn (BatchNormal  (None, 24, 24, 576)  2304       ['block4e_expand_conv[0][0]']    
 ization)                                                                                         
                                                                                                  
 block4e_expand_activation (Act  (None, 24, 24, 576)  0          ['block4e_expand_bn[0][0]']      
 ivation)                                                                                         
                                                                                                  
 block4e_dwconv (DepthwiseConv2  (None, 24, 24, 576)  5184       ['block4e_expand_activation[0][0]
 D)                                                              ']                               
                                                                                                  
 block4e_bn (BatchNormalization  (None, 24, 24, 576)  2304       ['block4e_dwconv[0][0]']         
 )                                                                                                
                                                                                                  
 block4e_activation (Activation  (None, 24, 24, 576)  0          ['block4e_bn[0][0]']             
 )                                                                                                
                                                                                                  
 block4e_se_squeeze (GlobalAver  (None, 576)         0           ['block4e_activation[0][0]']     
 agePooling2D)                                                                                    
                                                                                                  
 block4e_se_reshape (Reshape)   (None, 1, 1, 576)    0           ['block4e_se_squeeze[0][0]']     
                                                                                                  
 block4e_se_reduce (Conv2D)     (None, 1, 1, 24)     13848       ['block4e_se_reshape[0][0]']     
                                                                                                  
 block4e_se_expand (Conv2D)     (None, 1, 1, 576)    14400       ['block4e_se_reduce[0][0]']      
                                                                                                  
 block4e_se_excite (Multiply)   (None, 24, 24, 576)  0           ['block4e_activation[0][0]',     
                                                                  'block4e_se_expand[0][0]']      
                                                                                                  
 block4e_project_conv (Conv2D)  (None, 24, 24, 96)   55296       ['block4e_se_excite[0][0]']      
                                                                                                  
 block4e_project_bn (BatchNorma  (None, 24, 24, 96)  384         ['block4e_project_conv[0][0]']   
 lization)                                                                                        
                                                                                                  
 block4e_drop (FixedDropout)    (None, 24, 24, 96)   0           ['block4e_project_bn[0][0]']     
                                                                                                  
 block4e_add (Add)              (None, 24, 24, 96)   0           ['block4e_drop[0][0]',           
                                                                  'block4d_add[0][0]']            
                                                                                                  
 block5a_expand_conv (Conv2D)   (None, 24, 24, 576)  55296       ['block4e_add[0][0]']            
                                                                                                  
 block5a_expand_bn (BatchNormal  (None, 24, 24, 576)  2304       ['block5a_expand_conv[0][0]']    
 ization)                                                                                         
                                                                                                  
 block5a_expand_activation (Act  (None, 24, 24, 576)  0          ['block5a_expand_bn[0][0]']      
 ivation)                                                                                         
                                                                                                  
 block5a_dwconv (DepthwiseConv2  (None, 24, 24, 576)  14400      ['block5a_expand_activation[0][0]
 D)                                                              ']                               
                                                                                                  
 block5a_bn (BatchNormalization  (None, 24, 24, 576)  2304       ['block5a_dwconv[0][0]']         
 )                                                                                                
                                                                                                  
 block5a_activation (Activation  (None, 24, 24, 576)  0          ['block5a_bn[0][0]']             
 )                                                                                                
                                                                                                  
 block5a_se_squeeze (GlobalAver  (None, 576)         0           ['block5a_activation[0][0]']     
 agePooling2D)                                                                                    
                                                                                                  
 block5a_se_reshape (Reshape)   (None, 1, 1, 576)    0           ['block5a_se_squeeze[0][0]']     
                                                                                                  
 block5a_se_reduce (Conv2D)     (None, 1, 1, 24)     13848       ['block5a_se_reshape[0][0]']     
                                                                                                  
 block5a_se_expand (Conv2D)     (None, 1, 1, 576)    14400       ['block5a_se_reduce[0][0]']      
                                                                                                  
 block5a_se_excite (Multiply)   (None, 24, 24, 576)  0           ['block5a_activation[0][0]',     
                                                                  'block5a_se_expand[0][0]']      
                                                                                                  
 block5a_project_conv (Conv2D)  (None, 24, 24, 136)  78336       ['block5a_se_excite[0][0]']      
                                                                                                  
 block5a_project_bn (BatchNorma  (None, 24, 24, 136)  544        ['block5a_project_conv[0][0]']   
 lization)                                                                                        
                                                                                                  
 block5b_expand_conv (Conv2D)   (None, 24, 24, 816)  110976      ['block5a_project_bn[0][0]']     
                                                                                                  
 block5b_expand_bn (BatchNormal  (None, 24, 24, 816)  3264       ['block5b_expand_conv[0][0]']    
 ization)                                                                                         
                                                                                                  
 block5b_expand_activation (Act  (None, 24, 24, 816)  0          ['block5b_expand_bn[0][0]']      
 ivation)                                                                                         
                                                                                                  
 block5b_dwconv (DepthwiseConv2  (None, 24, 24, 816)  20400      ['block5b_expand_activation[0][0]
 D)                                                              ']                               
                                                                                                  
 block5b_bn (BatchNormalization  (None, 24, 24, 816)  3264       ['block5b_dwconv[0][0]']         
 )                                                                                                
                                                                                                  
 block5b_activation (Activation  (None, 24, 24, 816)  0          ['block5b_bn[0][0]']             
 )                                                                                                
                                                                                                  
 block5b_se_squeeze (GlobalAver  (None, 816)         0           ['block5b_activation[0][0]']     
 agePooling2D)                                                                                    
                                                                                                  
 block5b_se_reshape (Reshape)   (None, 1, 1, 816)    0           ['block5b_se_squeeze[0][0]']     
                                                                                                  
 block5b_se_reduce (Conv2D)     (None, 1, 1, 34)     27778       ['block5b_se_reshape[0][0]']     
                                                                                                  
 block5b_se_expand (Conv2D)     (None, 1, 1, 816)    28560       ['block5b_se_reduce[0][0]']      
                                                                                                  
 block5b_se_excite (Multiply)   (None, 24, 24, 816)  0           ['block5b_activation[0][0]',     
                                                                  'block5b_se_expand[0][0]']      
                                                                                                  
 block5b_project_conv (Conv2D)  (None, 24, 24, 136)  110976      ['block5b_se_excite[0][0]']      
                                                                                                  
 block5b_project_bn (BatchNorma  (None, 24, 24, 136)  544        ['block5b_project_conv[0][0]']   
 lization)                                                                                        
                                                                                                  
 block5b_drop (FixedDropout)    (None, 24, 24, 136)  0           ['block5b_project_bn[0][0]']     
                                                                                                  
 block5b_add (Add)              (None, 24, 24, 136)  0           ['block5b_drop[0][0]',           
                                                                  'block5a_project_bn[0][0]']     
                                                                                                  
 block5c_expand_conv (Conv2D)   (None, 24, 24, 816)  110976      ['block5b_add[0][0]']            
                                                                                                  
 block5c_expand_bn (BatchNormal  (None, 24, 24, 816)  3264       ['block5c_expand_conv[0][0]']    
 ization)                                                                                         
                                                                                                  
 block5c_expand_activation (Act  (None, 24, 24, 816)  0          ['block5c_expand_bn[0][0]']      
 ivation)                                                                                         
                                                                                                  
 block5c_dwconv (DepthwiseConv2  (None, 24, 24, 816)  20400      ['block5c_expand_activation[0][0]
 D)                                                              ']                               
                                                                                                  
 block5c_bn (BatchNormalization  (None, 24, 24, 816)  3264       ['block5c_dwconv[0][0]']         
 )                                                                                                
                                                                                                  
 block5c_activation (Activation  (None, 24, 24, 816)  0          ['block5c_bn[0][0]']             
 )                                                                                                
                                                                                                  
 block5c_se_squeeze (GlobalAver  (None, 816)         0           ['block5c_activation[0][0]']     
 agePooling2D)                                                                                    
                                                                                                  
 block5c_se_reshape (Reshape)   (None, 1, 1, 816)    0           ['block5c_se_squeeze[0][0]']     
                                                                                                  
 block5c_se_reduce (Conv2D)     (None, 1, 1, 34)     27778       ['block5c_se_reshape[0][0]']     
                                                                                                  
 block5c_se_expand (Conv2D)     (None, 1, 1, 816)    28560       ['block5c_se_reduce[0][0]']      
                                                                                                  
 block5c_se_excite (Multiply)   (None, 24, 24, 816)  0           ['block5c_activation[0][0]',     
                                                                  'block5c_se_expand[0][0]']      
                                                                                                  
 block5c_project_conv (Conv2D)  (None, 24, 24, 136)  110976      ['block5c_se_excite[0][0]']      
                                                                                                  
 block5c_project_bn (BatchNorma  (None, 24, 24, 136)  544        ['block5c_project_conv[0][0]']   
 lization)                                                                                        
                                                                                                  
 block5c_drop (FixedDropout)    (None, 24, 24, 136)  0           ['block5c_project_bn[0][0]']     
                                                                                                  
 block5c_add (Add)              (None, 24, 24, 136)  0           ['block5c_drop[0][0]',           
                                                                  'block5b_add[0][0]']            
                                                                                                  
 block5d_expand_conv (Conv2D)   (None, 24, 24, 816)  110976      ['block5c_add[0][0]']            
                                                                                                  
 block5d_expand_bn (BatchNormal  (None, 24, 24, 816)  3264       ['block5d_expand_conv[0][0]']    
 ization)                                                                                         
                                                                                                  
 block5d_expand_activation (Act  (None, 24, 24, 816)  0          ['block5d_expand_bn[0][0]']      
 ivation)                                                                                         
                                                                                                  
 block5d_dwconv (DepthwiseConv2  (None, 24, 24, 816)  20400      ['block5d_expand_activation[0][0]
 D)                                                              ']                               
                                                                                                  
 block5d_bn (BatchNormalization  (None, 24, 24, 816)  3264       ['block5d_dwconv[0][0]']         
 )                                                                                                
                                                                                                  
 block5d_activation (Activation  (None, 24, 24, 816)  0          ['block5d_bn[0][0]']             
 )                                                                                                
                                                                                                  
 block5d_se_squeeze (GlobalAver  (None, 816)         0           ['block5d_activation[0][0]']     
 agePooling2D)                                                                                    
                                                                                                  
 block5d_se_reshape (Reshape)   (None, 1, 1, 816)    0           ['block5d_se_squeeze[0][0]']     
                                                                                                  
 block5d_se_reduce (Conv2D)     (None, 1, 1, 34)     27778       ['block5d_se_reshape[0][0]']     
                                                                                                  
 block5d_se_expand (Conv2D)     (None, 1, 1, 816)    28560       ['block5d_se_reduce[0][0]']      
                                                                                                  
 block5d_se_excite (Multiply)   (None, 24, 24, 816)  0           ['block5d_activation[0][0]',     
                                                                  'block5d_se_expand[0][0]']      
                                                                                                  
 block5d_project_conv (Conv2D)  (None, 24, 24, 136)  110976      ['block5d_se_excite[0][0]']      
                                                                                                  
 block5d_project_bn (BatchNorma  (None, 24, 24, 136)  544        ['block5d_project_conv[0][0]']   
 lization)                                                                                        
                                                                                                  
 block5d_drop (FixedDropout)    (None, 24, 24, 136)  0           ['block5d_project_bn[0][0]']     
                                                                                                  
 block5d_add (Add)              (None, 24, 24, 136)  0           ['block5d_drop[0][0]',           
                                                                  'block5c_add[0][0]']            
                                                                                                  
 block5e_expand_conv (Conv2D)   (None, 24, 24, 816)  110976      ['block5d_add[0][0]']            
                                                                                                  
 block5e_expand_bn (BatchNormal  (None, 24, 24, 816)  3264       ['block5e_expand_conv[0][0]']    
 ization)                                                                                         
                                                                                                  
 block5e_expand_activation (Act  (None, 24, 24, 816)  0          ['block5e_expand_bn[0][0]']      
 ivation)                                                                                         
                                                                                                  
 block5e_dwconv (DepthwiseConv2  (None, 24, 24, 816)  20400      ['block5e_expand_activation[0][0]
 D)                                                              ']                               
                                                                                                  
 block5e_bn (BatchNormalization  (None, 24, 24, 816)  3264       ['block5e_dwconv[0][0]']         
 )                                                                                                
                                                                                                  
 block5e_activation (Activation  (None, 24, 24, 816)  0          ['block5e_bn[0][0]']             
 )                                                                                                
                                                                                                  
 block5e_se_squeeze (GlobalAver  (None, 816)         0           ['block5e_activation[0][0]']     
 agePooling2D)                                                                                    
                                                                                                  
 block5e_se_reshape (Reshape)   (None, 1, 1, 816)    0           ['block5e_se_squeeze[0][0]']     
                                                                                                  
 block5e_se_reduce (Conv2D)     (None, 1, 1, 34)     27778       ['block5e_se_reshape[0][0]']     
                                                                                                  
 block5e_se_expand (Conv2D)     (None, 1, 1, 816)    28560       ['block5e_se_reduce[0][0]']      
                                                                                                  
 block5e_se_excite (Multiply)   (None, 24, 24, 816)  0           ['block5e_activation[0][0]',     
                                                                  'block5e_se_expand[0][0]']      
                                                                                                  
 block5e_project_conv (Conv2D)  (None, 24, 24, 136)  110976      ['block5e_se_excite[0][0]']      
                                                                                                  
 block5e_project_bn (BatchNorma  (None, 24, 24, 136)  544        ['block5e_project_conv[0][0]']   
 lization)                                                                                        
                                                                                                  
 block5e_drop (FixedDropout)    (None, 24, 24, 136)  0           ['block5e_project_bn[0][0]']     
                                                                                                  
 block5e_add (Add)              (None, 24, 24, 136)  0           ['block5e_drop[0][0]',           
                                                                  'block5d_add[0][0]']            
                                                                                                  
 block6a_expand_conv (Conv2D)   (None, 24, 24, 816)  110976      ['block5e_add[0][0]']            
                                                                                                  
 block6a_expand_bn (BatchNormal  (None, 24, 24, 816)  3264       ['block6a_expand_conv[0][0]']    
 ization)                                                                                         
                                                                                                  
 block6a_expand_activation (Act  (None, 24, 24, 816)  0          ['block6a_expand_bn[0][0]']      
 ivation)                                                                                         
                                                                                                  
 block6a_dwconv (DepthwiseConv2  (None, 12, 12, 816)  20400      ['block6a_expand_activation[0][0]
 D)                                                              ']                               
                                                                                                  
 block6a_bn (BatchNormalization  (None, 12, 12, 816)  3264       ['block6a_dwconv[0][0]']         
 )                                                                                                
                                                                                                  
 block6a_activation (Activation  (None, 12, 12, 816)  0          ['block6a_bn[0][0]']             
 )                                                                                                
                                                                                                  
 block6a_se_squeeze (GlobalAver  (None, 816)         0           ['block6a_activation[0][0]']     
 agePooling2D)                                                                                    
                                                                                                  
 block6a_se_reshape (Reshape)   (None, 1, 1, 816)    0           ['block6a_se_squeeze[0][0]']     
                                                                                                  
 block6a_se_reduce (Conv2D)     (None, 1, 1, 34)     27778       ['block6a_se_reshape[0][0]']     
                                                                                                  
 block6a_se_expand (Conv2D)     (None, 1, 1, 816)    28560       ['block6a_se_reduce[0][0]']      
                                                                                                  
 block6a_se_excite (Multiply)   (None, 12, 12, 816)  0           ['block6a_activation[0][0]',     
                                                                  'block6a_se_expand[0][0]']      
                                                                                                  
 block6a_project_conv (Conv2D)  (None, 12, 12, 232)  189312      ['block6a_se_excite[0][0]']      
                                                                                                  
 block6a_project_bn (BatchNorma  (None, 12, 12, 232)  928        ['block6a_project_conv[0][0]']   
 lization)                                                                                        
                                                                                                  
 block6b_expand_conv (Conv2D)   (None, 12, 12, 1392  322944      ['block6a_project_bn[0][0]']     
                                )                                                                 
…
 block6b_bn (BatchNormalization  (None, 12, 12, 1392  5568       ['block6b_dwconv[0][0]']         
 )                              )                                                                 
                                                                                                  
 block6b_activation (Activation  (None, 12, 12, 1392  0          ['block6b_bn[0][0]']             
 )                              )                                                                 
                                                                                                  
 block6b_se_squeeze (GlobalAver  (None, 1392)        0           ['block6b_activation[0][0]']     
 agePooling2D)                                                                                    
                                                                                                  
 block6b_se_reshape (Reshape)   (None, 1, 1, 1392)   0           ['block6b_se_squeeze[0][0]']     
                                                                                                  
 block6b_se_reduce (Conv2D)     (None, 1, 1, 58)     80794       ['block6b_se_reshape[0][0]']     
                                                                                                  
 block6b_se_expand (Conv2D)     (None, 1, 1, 1392)   82128       ['block6b_se_reduce[0][0]']      
                                                                                                  
 block6b_se_excite (Multiply)   (None, 12, 12, 1392  0           ['block6b_activation[0][0]',     
                                )                                 'block6b_se_expand[0][0]']      
                                                                                                  
 block6b_project_conv (Conv2D)  (None, 12, 12, 232)  322944      ['block6b_se_excite[0][0]']      
                                                                                                  
 block6b_project_bn (BatchNorma  (None, 12, 12, 232)  928        ['block6b_project_conv[0][0]']   
 lization)                                                                                        
                                                                                                  
 block6b_drop (FixedDropout)    (None, 12, 12, 232)  0           ['block6b_project_bn[0][0]']     
                                                                                                  
 block6b_add (Add)              (None, 12, 12, 232)  0           ['block6b_drop[0][0]',           
                                                                  'block6a_project_bn[0][0]']     
                                                                                                  
 block6c_expand_conv (Conv2D)   (None, 12, 12, 1392  322944      ['block6b_add[0][0]']            
                                )                                                                 
…
 block7a_bn (BatchNormalization  (None, 12, 12, 1392  5568       ['block7a_dwconv[0][0]']         
 )                              )                                                                 
                                                                                                  
 block7a_activation (Activation  (None, 12, 12, 1392  0          ['block7a_bn[0][0]']             
 )                              )                                                                 
                                                                                                  
 block7a_se_squeeze (GlobalAver  (None, 1392)        0           ['block7a_activation[0][0]']     
 agePooling2D)                                                                                    
                                                                                                  
 block7a_se_reshape (Reshape)   (None, 1, 1, 1392)   0           ['block7a_se_squeeze[0][0]']     
                                                                                                  
 block7a_se_reduce (Conv2D)     (None, 1, 1, 58)     80794       ['block7a_se_reshape[0][0]']     
                                                                                                  
 block7a_se_expand (Conv2D)     (None, 1, 1, 1392)   82128       ['block7a_se_reduce[0][0]']      
                                                                                                  
 block7a_se_excite (Multiply)   (None, 12, 12, 1392  0           ['block7a_activation[0][0]',     
                                )                                 'block7a_se_expand[0][0]']      
                                                                                                  
 block7a_project_conv (Conv2D)  (None, 12, 12, 384)  534528      ['block7a_se_excite[0][0]']      
                                                                                                  
 block7a_project_bn (BatchNorma  (None, 12, 12, 384)  1536       ['block7a_project_conv[0][0]']   
 lization)                                                                                        
                                                                                                  
 block7b_expand_conv (Conv2D)   (None, 12, 12, 2304  884736      ['block7a_project_bn[0][0]']     
                                )                                                                 
…
 block7b_bn (BatchNormalization  (None, 12, 12, 2304  9216       ['block7b_dwconv[0][0]']         
 )                              )                                                                 
                                                                                                  
 block7b_activation (Activation  (None, 12, 12, 2304  0          ['block7b_bn[0][0]']             
 )                              )                                                                 
                                                                                                  
 block7b_se_squeeze (GlobalAver  (None, 2304)        0           ['block7b_activation[0][0]']     
 agePooling2D)                                                                                    
                                                                                                  
 block7b_se_reshape (Reshape)   (None, 1, 1, 2304)   0           ['block7b_se_squeeze[0][0]']     
                                                                                                  
 block7b_se_reduce (Conv2D)     (None, 1, 1, 96)     221280      ['block7b_se_reshape[0][0]']     
                                                                                                  
 block7b_se_expand (Conv2D)     (None, 1, 1, 2304)   223488      ['block7b_se_reduce[0][0]']      
                                                                                                  
 block7b_se_excite (Multiply)   (None, 12, 12, 2304  0           ['block7b_activation[0][0]',     
                                )                                 'block7b_se_expand[0][0]']      
                                                                                                  
 block7b_project_conv (Conv2D)  (None, 12, 12, 384)  884736      ['block7b_se_excite[0][0]']      
                                                                                                  
 block7b_project_bn (BatchNorma  (None, 12, 12, 384)  1536       ['block7b_project_conv[0][0]']   
 lization)                                                                                        
                                                                                                  
 block7b_drop (FixedDropout)    (None, 12, 12, 384)  0           ['block7b_project_bn[0][0]']     
                                                                                                  
 block7b_add (Add)              (None, 12, 12, 384)  0           ['block7b_drop[0][0]',           
                                                                  'block7a_project_bn[0][0]']     
                                                                                                  
 top_conv (Conv2D)              (None, 12, 12, 1536  589824      ['block7b_add[0][0]']            
                                )                                                                 
…
                                                                                                  
 decoder_stage0_concat (Concate  (None, 24, 24, 2352  0          ['decoder_stage0_upsampling[0][0]
 nate)                          )                                ',                               
                                                                  'block6a_expand_activation[0][0]
                                                                 ']                               
                                                                                                  
 decoder_stage0a_conv (Conv2D)  (None, 24, 24, 256)  5419008     ['decoder_stage0_concat[0][0]']  
                                                                                                  
 decoder_stage0a_bn (BatchNorma  (None, 24, 24, 256)  1024       ['decoder_stage0a_conv[0][0]']   
 lization)                                                                                        
                                                                                                  
 decoder_stage0a_relu (Activati  (None, 24, 24, 256)  0          ['decoder_stage0a_bn[0][0]']     
 on)                                                                                              
                                                                                                  
 decoder_stage0b_conv (Conv2D)  (None, 24, 24, 256)  589824      ['decoder_stage0a_relu[0][0]']   
                                                                                                  
 decoder_stage0b_bn (BatchNorma  (None, 24, 24, 256)  1024       ['decoder_stage0b_conv[0][0]']   
 lization)                                                                                        
                                                                                                  
 decoder_stage0b_relu (Activati  (None, 24, 24, 256)  0          ['decoder_stage0b_bn[0][0]']     
 on)                                                                                              
                                                                                                  
 decoder_stage1_upsampling (UpS  (None, 48, 48, 256)  0          ['decoder_stage0b_relu[0][0]']   
 ampling2D)                                                                                       
                                                                                                  
 decoder_stage1_concat (Concate  (None, 48, 48, 544)  0          ['decoder_stage1_upsampling[0][0]
 nate)                                                           ',                               
                                                                  'block4a_expand_activation[0][0]
                                                                 ']                               
                                                                                                  
 decoder_stage1a_conv (Conv2D)  (None, 48, 48, 128)  626688      ['decoder_stage1_concat[0][0]']  
                                                                                                  
 decoder_stage1a_bn (BatchNorma  (None, 48, 48, 128)  512        ['decoder_stage1a_conv[0][0]']   
 lization)                                                                                        
                                                                                                  
 decoder_stage1a_relu (Activati  (None, 48, 48, 128)  0          ['decoder_stage1a_bn[0][0]']     
 on)                                                                                              
                                                                                                  
 decoder_stage1b_conv (Conv2D)  (None, 48, 48, 128)  147456      ['decoder_stage1a_relu[0][0]']   
                                                                                                  
 decoder_stage1b_bn (BatchNorma  (None, 48, 48, 128)  512        ['decoder_stage1b_conv[0][0]']   
 lization)                                                                                        
                                                                                                  
 decoder_stage1b_relu (Activati  (None, 48, 48, 128)  0          ['decoder_stage1b_bn[0][0]']     
 on)                                                                                              
                                                                                                  
 decoder_stage2_upsampling (UpS  (None, 96, 96, 128)  0          ['decoder_stage1b_relu[0][0]']   
 ampling2D)                                                                                       
                                                                                                  
 decoder_stage2_concat (Concate  (None, 96, 96, 320)  0          ['decoder_stage2_upsampling[0][0]
 nate)                                                           ',                               
                                                                  'block3a_expand_activation[0][0]
                                                                 ']                               
                                                                                                  
 decoder_stage2a_conv (Conv2D)  (None, 96, 96, 64)   184320      ['decoder_stage2_concat[0][0]']  
                                                                                                  
 decoder_stage2a_bn (BatchNorma  (None, 96, 96, 64)  256         ['decoder_stage2a_conv[0][0]']   
 lization)                                                                                        
                                                                                                  
 decoder_stage2a_relu (Activati  (None, 96, 96, 64)  0           ['decoder_stage2a_bn[0][0]']     
 on)                                                                                              
                                                                                                  
 decoder_stage2b_conv (Conv2D)  (None, 96, 96, 64)   36864       ['decoder_stage2a_relu[0][0]']   
                                                                                                  
 decoder_stage2b_bn (BatchNorma  (None, 96, 96, 64)  256         ['decoder_stage2b_conv[0][0]']   
 lization)                                                                                        
                                                                                                  
 decoder_stage2b_relu (Activati  (None, 96, 96, 64)  0           ['decoder_stage2b_bn[0][0]']     
 on)                                                                                              
                                                                                                  
 decoder_stage3_upsampling (UpS  (None, 192, 192, 64  0          ['decoder_stage2b_relu[0][0]']   
 ampling2D)                     )                                                                 
…
 block2a_expand_bn (BatchNormal  (None, 192, 192, 14  576        ['block2a_expand_conv[0][0]']    
 ization)                       4)                                                                
                                                                                                  
 block2a_expand_activation (Act  (None, 192, 192, 14  0          ['block2a_expand_bn[0][0]']      
 ivation)                       4)                                                                
                                                                                                  
 block2a_dwconv (DepthwiseConv2  (None, 96, 96, 144)  1296       ['block2a_expand_activation[0][0]
 D)                                                              ']                               
                                                                                                  
 block2a_bn (BatchNormalization  (None, 96, 96, 144)  576        ['block2a_dwconv[0][0]']         
 )                                                                                                
                                                                                                  
 block2a_activation (Activation  (None, 96, 96, 144)  0          ['block2a_bn[0][0]']             
 )                                                                                                
                                                                                                  
 block2a_se_squeeze (GlobalAver  (None, 144)         0           ['block2a_activation[0][0]']     
 agePooling2D)                                                                                    
                                                                                                  
 block2a_se_reshape (Reshape)   (None, 1, 1, 144)    0           ['block2a_se_squeeze[0][0]']     
                                                                                                  
 block2a_se_reduce (Conv2D)     (None, 1, 1, 6)      870         ['block2a_se_reshape[0][0]']     
                                                                                                  
 block2a_se_expand (Conv2D)     (None, 1, 1, 144)    1008        ['block2a_se_reduce[0][0]']      
                                                                                                  
 block2a_se_excite (Multiply)   (None, 96, 96, 144)  0           ['block2a_activation[0][0]',     
                                                                  'block2a_se_expand[0][0]']      
                                                                                                  
 block2a_project_conv (Conv2D)  (None, 96, 96, 32)   4608        ['block2a_se_excite[0][0]']      
                                                                                                  
 block2a_project_bn (BatchNorma  (None, 96, 96, 32)  128         ['block2a_project_conv[0][0]']   
 lization)                                                                                        
                                                                                                  
 block2b_expand_conv (Conv2D)   (None, 96, 96, 192)  6144        ['block2a_project_bn[0][0]']     
                                                                                                  
 block2b_expand_bn (BatchNormal  (None, 96, 96, 192)  768        ['block2b_expand_conv[0][0]']    
 ization)                                                                                         
                                                                                                  
 block2b_expand_activation (Act  (None, 96, 96, 192)  0          ['block2b_expand_bn[0][0]']      
 ivation)                                                                                         
                                                                                                  
 block2b_dwconv (DepthwiseConv2  (None, 96, 96, 192)  1728       ['block2b_expand_activation[0][0]
 D)                                                              ']                               
                                                                                                  
 block2b_bn (BatchNormalization  (None, 96, 96, 192)  768        ['block2b_dwconv[0][0]']         
 )                                                                                                
                                                                                                  
 block2b_activation (Activation  (None, 96, 96, 192)  0          ['block2b_bn[0][0]']             
 )                                                                                                
                                                                                                  
 block2b_se_squeeze (GlobalAver  (None, 192)         0           ['block2b_activation[0][0]']     
 agePooling2D)                                                                                    
                                                                                                  
 block2b_se_reshape (Reshape)   (None, 1, 1, 192)    0           ['block2b_se_squeeze[0][0]']     
                                                                                                  
 block2b_se_reduce (Conv2D)     (None, 1, 1, 8)      1544        ['block2b_se_reshape[0][0]']     
                                                                                                  
 block2b_se_expand (Conv2D)     (None, 1, 1, 192)    1728        ['block2b_se_reduce[0][0]']      
                                                                                                  
 block2b_se_excite (Multiply)   (None, 96, 96, 192)  0           ['block2b_activation[0][0]',     
                                                                  'block2b_se_expand[0][0]']      
                                                                                                  
 block2b_project_conv (Conv2D)  (None, 96, 96, 32)   6144        ['block2b_se_excite[0][0]']      
                                                                                                  
 block2b_project_bn (BatchNorma  (None, 96, 96, 32)  128         ['block2b_project_conv[0][0]']   
 lization)                                                                                        
                                                                                                  
 block2b_drop (FixedDropout)    (None, 96, 96, 32)   0           ['block2b_project_bn[0][0]']     
                                                                                                  
 block2b_add (Add)              (None, 96, 96, 32)   0           ['block2b_drop[0][0]',           
                                                                  'block2a_project_bn[0][0]']     
                                                                                                  
 block2c_expand_conv (Conv2D)   (None, 96, 96, 192)  6144        ['block2b_add[0][0]']            
                                                                                                  
 block2c_expand_bn (BatchNormal  (None, 96, 96, 192)  768        ['block2c_expand_conv[0][0]']    
 ization)                                                                                         
                                                                                                  
 block2c_expand_activation (Act  (None, 96, 96, 192)  0          ['block2c_expand_bn[0][0]']      
 ivation)                                                                                         
                                                                                                  
 block2c_dwconv (DepthwiseConv2  (None, 96, 96, 192)  1728       ['block2c_expand_activation[0][0]
 D)                                                              ']                               
                                                                                                  
 block2c_bn (BatchNormalization  (None, 96, 96, 192)  768        ['block2c_dwconv[0][0]']         
 )                                                                                                
                                                                                                  
 block2c_activation (Activation  (None, 96, 96, 192)  0          ['block2c_bn[0][0]']             
 )                                                                                                
                                                                                                  
 block2c_se_squeeze (GlobalAver  (None, 192)         0           ['block2c_activation[0][0]']     
 agePooling2D)                                                                                    
                                                                                                  
 block2c_se_reshape (Reshape)   (None, 1, 1, 192)    0           ['block2c_se_squeeze[0][0]']     
                                                                                                  
 block2c_se_reduce (Conv2D)     (None, 1, 1, 8)      1544        ['block2c_se_reshape[0][0]']     
                                                                                                  
 block2c_se_expand (Conv2D)     (None, 1, 1, 192)    1728        ['block2c_se_reduce[0][0]']      
                                                                                                  
 block2c_se_excite (Multiply)   (None, 96, 96, 192)  0           ['block2c_activation[0][0]',     
                                                                  'block2c_se_expand[0][0]']      
                                                                                                  
 block2c_project_conv (Conv2D)  (None, 96, 96, 32)   6144        ['block2c_se_excite[0][0]']      
                                                                                                  
 block2c_project_bn (BatchNorma  (None, 96, 96, 32)  128         ['block2c_project_conv[0][0]']   
 lization)                                                                                        
                                                                                                  
 block2c_drop (FixedDropout)    (None, 96, 96, 32)   0           ['block2c_project_bn[0][0]']     
                                                                                                  
 block2c_add (Add)              (None, 96, 96, 32)   0           ['block2c_drop[0][0]',           
                                                                  'block2b_add[0][0]']            
                                                                                                  
 block3a_expand_conv (Conv2D)   (None, 96, 96, 192)  6144        ['block2c_add[0][0]']            
                                                                                                  
 block3a_expand_bn (BatchNormal  (None, 96, 96, 192)  768        ['block3a_expand_conv[0][0]']    
 ization)                                                                                         
                                                                                                  
 block3a_expand_activation (Act  (None, 96, 96, 192)  0          ['block3a_expand_bn[0][0]']      
 ivation)                                                                                         
                                                                                                  
 block3a_dwconv (DepthwiseConv2  (None, 48, 48, 192)  4800       ['block3a_expand_activation[0][0]
 D)                                                              ']                               
                                                                                                  
 block3a_bn (BatchNormalization  (None, 48, 48, 192)  768        ['block3a_dwconv[0][0]']         
 )                                                                                                
                                                                                                  
 block3a_activation (Activation  (None, 48, 48, 192)  0          ['block3a_bn[0][0]']             
 )                                                                                                
                                                                                                  
 block3a_se_squeeze (GlobalAver  (None, 192)         0           ['block3a_activation[0][0]']     
 agePooling2D)                                                                                    
                                                                                                  
 block3a_se_reshape (Reshape)   (None, 1, 1, 192)    0           ['block3a_se_squeeze[0][0]']     
                                                                                                  
 block3a_se_reduce (Conv2D)     (None, 1, 1, 8)      1544        ['block3a_se_reshape[0][0]']     
                                                                                                  
 block3a_se_expand (Conv2D)     (None, 1, 1, 192)    1728        ['block3a_se_reduce[0][0]']      
                                                                                                  
 block3a_se_excite (Multiply)   (None, 48, 48, 192)  0           ['block3a_activation[0][0]',     
                                                                  'block3a_se_expand[0][0]']      
                                                                                                  
 block3a_project_conv (Conv2D)  (None, 48, 48, 48)   9216        ['block3a_se_excite[0][0]']      
                                                                                                  
 block3a_project_bn (BatchNorma  (None, 48, 48, 48)  192         ['block3a_project_conv[0][0]']   
 lization)                                                                                        
                                                                                                  
 block3b_expand_conv (Conv2D)   (None, 48, 48, 288)  13824       ['block3a_project_bn[0][0]']     
                                                                                                  
 block3b_expand_bn (BatchNormal  (None, 48, 48, 288)  1152       ['block3b_expand_conv[0][0]']    
 ization)                                                                                         
                                                                                                  
 block3b_expand_activation (Act  (None, 48, 48, 288)  0          ['block3b_expand_bn[0][0]']      
 ivation)                                                                                         
                                                                                                  
 block3b_dwconv (DepthwiseConv2  (None, 48, 48, 288)  7200       ['block3b_expand_activation[0][0]
 D)                                                              ']                               
                                                                                                  
 block3b_bn (BatchNormalization  (None, 48, 48, 288)  1152       ['block3b_dwconv[0][0]']         
 )                                                                                                
                                                                                                  
 block3b_activation (Activation  (None, 48, 48, 288)  0          ['block3b_bn[0][0]']             
 )                                                                                                
                                                                                                  
 block3b_se_squeeze (GlobalAver  (None, 288)         0           ['block3b_activation[0][0]']     
 agePooling2D)                                                                                    
                                                                                                  
 block3b_se_reshape (Reshape)   (None, 1, 1, 288)    0           ['block3b_se_squeeze[0][0]']     
                                                                                                  
 block3b_se_reduce (Conv2D)     (None, 1, 1, 12)     3468        ['block3b_se_reshape[0][0]']     
                                                                                                  
 block3b_se_expand (Conv2D)     (None, 1, 1, 288)    3744        ['block3b_se_reduce[0][0]']      
                                                                                                  
 block3b_se_excite (Multiply)   (None, 48, 48, 288)  0           ['block3b_activation[0][0]',     
                                                                  'block3b_se_expand[0][0]']      
                                                                                                  
 block3b_project_conv (Conv2D)  (None, 48, 48, 48)   13824       ['block3b_se_excite[0][0]']      
                                                                                                  
 block3b_project_bn (BatchNorma  (None, 48, 48, 48)  192         ['block3b_project_conv[0][0]']   
 lization)                                                                                        
                                                                                                  
 block3b_drop (FixedDropout)    (None, 48, 48, 48)   0           ['block3b_project_bn[0][0]']     
                                                                                                  
 block3b_add (Add)              (None, 48, 48, 48)   0           ['block3b_drop[0][0]',           
                                                                  'block3a_project_bn[0][0]']     
                                                                                                  
 block3c_expand_conv (Conv2D)   (None, 48, 48, 288)  13824       ['block3b_add[0][0]']            
                                                                                                  
 block3c_expand_bn (BatchNormal  (None, 48, 48, 288)  1152       ['block3c_expand_conv[0][0]']    
 ization)                                                                                         
                                                                                                  
 block3c_expand_activation (Act  (None, 48, 48, 288)  0          ['block3c_expand_bn[0][0]']      
 ivation)                                                                                         
                                                                                                  
 block3c_dwconv (DepthwiseConv2  (None, 48, 48, 288)  7200       ['block3c_expand_activation[0][0]
 D)                                                              ']                               
                                                                                                  
 block3c_bn (BatchNormalization  (None, 48, 48, 288)  1152       ['block3c_dwconv[0][0]']         
 )                                                                                                
                                                                                                  
 block3c_activation (Activation  (None, 48, 48, 288)  0          ['block3c_bn[0][0]']             
 )                                                                                                
                                                                                                  
 block3c_se_squeeze (GlobalAver  (None, 288)         0           ['block3c_activation[0][0]']     
 agePooling2D)                                                                                    
                                                                                                  
 block3c_se_reshape (Reshape)   (None, 1, 1, 288)    0           ['block3c_se_squeeze[0][0]']     
                                                                                                  
 block3c_se_reduce (Conv2D)     (None, 1, 1, 12)     3468        ['block3c_se_reshape[0][0]']     
                                                                                                  
 block3c_se_expand (Conv2D)     (None, 1, 1, 288)    3744        ['block3c_se_reduce[0][0]']      
                                                                                                  
 block3c_se_excite (Multiply)   (None, 48, 48, 288)  0           ['block3c_activation[0][0]',     
                                                                  'block3c_se_expand[0][0]']      
                                                                                                  
 block3c_project_conv (Conv2D)  (None, 48, 48, 48)   13824       ['block3c_se_excite[0][0]']      
                                                                                                  
 block3c_project_bn (BatchNorma  (None, 48, 48, 48)  192         ['block3c_project_conv[0][0]']   
 lization)                                                                                        
                                                                                                  
 block3c_drop (FixedDropout)    (None, 48, 48, 48)   0           ['block3c_project_bn[0][0]']     
                                                                                                  
 block3c_add (Add)              (None, 48, 48, 48)   0           ['block3c_drop[0][0]',           
                                                                  'block3b_add[0][0]']            
                                                                                                  
 block4a_expand_conv (Conv2D)   (None, 48, 48, 288)  13824       ['block3c_add[0][0]']            
                                                                                                  
 block4a_expand_bn (BatchNormal  (None, 48, 48, 288)  1152       ['block4a_expand_conv[0][0]']    
 ization)                                                                                         
                                                                                                  
 block4a_expand_activation (Act  (None, 48, 48, 288)  0          ['block4a_expand_bn[0][0]']      
 ivation)                                                                                         
                                                                                                  
 psp_level1_pooling (AveragePoo  (None, 1, 1, 288)   0           ['block4a_expand_activation[0][0]
 ling2D)                                                         ']                               
                                                                                                  
 psp_level2_pooling (AveragePoo  (None, 2, 2, 288)   0           ['block4a_expand_activation[0][0]
 ling2D)                                                         ']                               
                                                                                                  
 psp_level3_pooling (AveragePoo  (None, 3, 3, 288)   0           ['block4a_expand_activation[0][0]
 ling2D)                                                         ']                               
                                                                                                  
 psp_level6_pooling (AveragePoo  (None, 6, 6, 288)   0           ['block4a_expand_activation[0][0]
 ling2D)                                                         ']                               
                                                                                                  
 psp_level1_conv (Conv2D)       (None, 1, 1, 512)    147456      ['psp_level1_pooling[0][0]']     
                                                                                                  
 psp_level2_conv (Conv2D)       (None, 2, 2, 512)    147456      ['psp_level2_pooling[0][0]']     
                                                                                                  
 psp_level3_conv (Conv2D)       (None, 3, 3, 512)    147456      ['psp_level3_pooling[0][0]']     
                                                                                                  
 psp_level6_conv (Conv2D)       (None, 6, 6, 512)    147456      ['psp_level6_pooling[0][0]']     
                                                                                                  
 psp_level1_bn (BatchNormalizat  (None, 1, 1, 512)   2048        ['psp_level1_conv[0][0]']        
 ion)                                                                                             
                                                                                                  
 psp_level2_bn (BatchNormalizat  (None, 2, 2, 512)   2048        ['psp_level2_conv[0][0]']        
 ion)                                                                                             
                                                                                                  
 psp_level3_bn (BatchNormalizat  (None, 3, 3, 512)   2048        ['psp_level3_conv[0][0]']        
 ion)                                                                                             
                                                                                                  
 psp_level6_bn (BatchNormalizat  (None, 6, 6, 512)   2048        ['psp_level6_conv[0][0]']        
 ion)                                                                                             
                                                                                                  
 psp_level1_relu (Activation)   (None, 1, 1, 512)    0           ['psp_level1_bn[0][0]']          
                                                                                                  
 psp_level2_relu (Activation)   (None, 2, 2, 512)    0           ['psp_level2_bn[0][0]']          
                                                                                                  
 psp_level3_relu (Activation)   (None, 3, 3, 512)    0           ['psp_level3_bn[0][0]']          
                                                                                                  
 psp_level6_relu (Activation)   (None, 6, 6, 512)    0           ['psp_level6_bn[0][0]']          
                                                                                                  
 psp_level1_upsampling (UpSampl  (None, 48, 48, 512)  0          ['psp_level1_relu[0][0]']        
 ing2D)                                                                                           
                                                                                                  
 psp_level2_upsampling (UpSampl  (None, 48, 48, 512)  0          ['psp_level2_relu[0][0]']        
 ing2D)                                                                                           
                                                                                                  
 psp_level3_upsampling (UpSampl  (None, 48, 48, 512)  0          ['psp_level3_relu[0][0]']        
 ing2D)                                                                                           
                                                                                                  
 psp_level6_upsampling (UpSampl  (None, 48, 48, 512)  0          ['psp_level6_relu[0][0]']        
 ing2D)                                                                                           
                                                                                                  
 psp_concat (Concatenate)       (None, 48, 48, 2336  0           ['block4a_expand_activation[0][0]
                                )                                ',                               
                                                                  'psp_level1_upsampling[0][0]',  
                                                                  'psp_level2_upsampling[0][0]',  
                                                                  'psp_level3_upsampling[0][0]',  
                                                                  'psp_level6_upsampling[0][0]']  
                                                                                                  
 aggregation_conv (Conv2D)      (None, 48, 48, 512)  1196032     ['psp_concat[0][0]']             
                                                                                                  
 aggregation_bn (BatchNormaliza  (None, 48, 48, 512)  2048       ['aggregation_conv[0][0]']       
 tion)                                                                                            
                                                                                                  
 aggregation_relu (Activation)  (None, 48, 48, 512)  0           ['aggregation_bn[0][0]']         
                                                                                                  
 final_conv (Conv2D)            (None, 48, 48, 1)    4609        ['aggregation_relu[0][0]']       
                                                                                                  
 final_upsampling (UpSampling2D  (None, 384, 384, 1)  0          ['final_conv[0][0]']             
 )                                                                                                
                                                                                                  
 activation (Activation)        (None, 384, 384, 1)  0           ['final_upsampling[0][0]']       
                                                                                                  
 dropout (Dropout)              (None, 384, 384, 1)  0           ['activation[0][0]']             
                                                                                                  
 sigmoid (Activation)           (None, 384, 384, 1)  0           ['dropout[0][0]']                
                                                                                                  
==================================================================================================
Total params: 1,985,343
Trainable params: 1,973,679
Non-trainable params: 11,664
__________________________________________________________________________________________________
…
 top_bn (BatchNormalization)    (None, 12, 12, 1536  6144        ['top_conv[0][0]']               
                                )                                                                 
                                                                                                  
 top_activation (Activation)    (None, 12, 12, 1536  0           ['top_bn[0][0]']                 
                                )                                                                 
                                                                                                  
 fpn_stage_p5_pre_conv (Conv2D)  (None, 12, 12, 256)  393472     ['top_activation[0][0]']         
                                                                                                  
 fpn_stage_p5_upsampling (UpSam  (None, 24, 24, 256)  0          ['fpn_stage_p5_pre_conv[0][0]']  
 pling2D)                                                                                         
                                                                                                  
 fpn_stage_p5_conv (Conv2D)     (None, 24, 24, 256)  209152      ['block6a_expand_activation[0][0]
                                                                 ']                               
                                                                                                  
 fpn_stage_p5_add (Add)         (None, 24, 24, 256)  0           ['fpn_stage_p5_upsampling[0][0]',
                                                                  'fpn_stage_p5_conv[0][0]']      
                                                                                                  
 fpn_stage_p4_upsampling (UpSam  (None, 48, 48, 256)  0          ['fpn_stage_p5_add[0][0]']       
 pling2D)                                                                                         
                                                                                                  
 fpn_stage_p4_conv (Conv2D)     (None, 48, 48, 256)  73984       ['block4a_expand_activation[0][0]
                                                                 ']                               
                                                                                                  
 fpn_stage_p4_add (Add)         (None, 48, 48, 256)  0           ['fpn_stage_p4_upsampling[0][0]',
                                                                  'fpn_stage_p4_conv[0][0]']      
                                                                                                  
 fpn_stage_p3_upsampling (UpSam  (None, 96, 96, 256)  0          ['fpn_stage_p4_add[0][0]']       
 pling2D)                                                                                         
                                                                                                  
 fpn_stage_p3_conv (Conv2D)     (None, 96, 96, 256)  49408       ['block3a_expand_activation[0][0]
                                                                 ']                               
                                                                                                  
 fpn_stage_p3_add (Add)         (None, 96, 96, 256)  0           ['fpn_stage_p3_upsampling[0][0]',
                                                                  'fpn_stage_p3_conv[0][0]']      
                                                                                                  
 fpn_stage_p2_upsampling (UpSam  (None, 192, 192, 25  0          ['fpn_stage_p3_add[0][0]']       
 pling2D)                       6)                                                                
…
 fpn_stage_p2_conv (Conv2D)     (None, 192, 192, 25  37120       ['block2a_expand_activation[0][0]
                                6)                               ']                               
                                                                                                  
 fpn_stage_p2_add (Add)         (None, 192, 192, 25  0           ['fpn_stage_p2_upsampling[0][0]',
                                6)                                'fpn_stage_p2_conv[0][0]']      
                                                                                                  
 segm_stage3a_conv (Conv2D)     (None, 96, 96, 128)  294912      ['fpn_stage_p3_add[0][0]']       
                                                                                                  
 segm_stage4a_conv (Conv2D)     (None, 48, 48, 128)  294912      ['fpn_stage_p4_add[0][0]']       
                                                                                                  
 segm_stage5a_conv (Conv2D)     (None, 24, 24, 128)  294912      ['fpn_stage_p5_add[0][0]']       
                                                                                                  
 segm_stage2a_conv (Conv2D)     (None, 192, 192, 12  294912      ['fpn_stage_p2_add[0][0]']       
                                8)                                                                
                                                                                                  
 segm_stage3a_bn (BatchNormaliz  (None, 96, 96, 128)  512        ['segm_stage3a_conv[0][0]']      
 ation)                                                                                           
                                                                                                  
 segm_stage4a_bn (BatchNormaliz  (None, 48, 48, 128)  512        ['segm_stage4a_conv[0][0]']      
 ation)                                                                                           
                                                                                                  
 segm_stage5a_bn (BatchNormaliz  (None, 24, 24, 128)  512        ['segm_stage5a_conv[0][0]']      
 ation)                                                                                           
                                                                                                  
 segm_stage2a_bn (BatchNormaliz  (None, 192, 192, 12  512        ['segm_stage2a_conv[0][0]']      
 ation)                         8)                                                                
                                                                                                  
 segm_stage3a_relu (Activation)  (None, 96, 96, 128)  0          ['segm_stage3a_bn[0][0]']        
                                                                                                  
 segm_stage4a_relu (Activation)  (None, 48, 48, 128)  0          ['segm_stage4a_bn[0][0]']        
                                                                                                  
 segm_stage5a_relu (Activation)  (None, 24, 24, 128)  0          ['segm_stage5a_bn[0][0]']        
                                                                                                  
 segm_stage2a_relu (Activation)  (None, 192, 192, 12  0          ['segm_stage2a_bn[0][0]']        
                                8)                                                                
                                                                                                  
 segm_stage3b_conv (Conv2D)     (None, 96, 96, 128)  147456      ['segm_stage3a_relu[0][0]']      
                                                                                                  
 segm_stage4b_conv (Conv2D)     (None, 48, 48, 128)  147456      ['segm_stage4a_relu[0][0]']      
                                                                                                  
 segm_stage5b_conv (Conv2D)     (None, 24, 24, 128)  147456      ['segm_stage5a_relu[0][0]']      
                                                                                                  
 segm_stage2b_conv (Conv2D)     (None, 192, 192, 12  147456      ['segm_stage2a_relu[0][0]']      
                                8)                                                                
                                                                                                  
 segm_stage3b_bn (BatchNormaliz  (None, 96, 96, 128)  512        ['segm_stage3b_conv[0][0]']      
 ation)                                                                                           
                                                                                                  
 segm_stage4b_bn (BatchNormaliz  (None, 48, 48, 128)  512        ['segm_stage4b_conv[0][0]']      
 ation)                                                                                           
                                                                                                  
 segm_stage5b_bn (BatchNormaliz  (None, 24, 24, 128)  512        ['segm_stage5b_conv[0][0]']      
 ation)                                                                                           
                                                                                                  
 segm_stage2b_bn (BatchNormaliz  (None, 192, 192, 12  512        ['segm_stage2b_conv[0][0]']      
 ation)                         8)                                                                
                                                                                                  
 segm_stage3b_relu (Activation)  (None, 96, 96, 128)  0          ['segm_stage3b_bn[0][0]']        
                                                                                                  
 segm_stage4b_relu (Activation)  (None, 48, 48, 128)  0          ['segm_stage4b_bn[0][0]']        
                                                                                                  
 segm_stage5b_relu (Activation)  (None, 24, 24, 128)  0          ['segm_stage5b_bn[0][0]']        
                                                                                                  
 segm_stage2b_relu (Activation)  (None, 192, 192, 12  0          ['segm_stage2b_bn[0][0]']        
                                8)                                                                
                                                                                                  
…
