2025-06-19 12:41:32,631 INFO Entrenando arquitectura (supervised): baseline
Model: "model_1"
__________________________________________________________________________________________________
Layer (type)                    Output Shape         Param #     Connected to                     
==================================================================================================
input_1 (InputLayer)            [(None, 384, 384, 3) 0                                            
__________________________________________________________________________________________________
stem_conv (Conv2D)              (None, 192, 192, 40) 1080        input_1[0][0]                    
__________________________________________________________________________________________________
stem_bn (BatchNormalization)    (None, 192, 192, 40) 160         stem_conv[0][0]                  
__________________________________________________________________________________________________
stem_activation (Activation)    (None, 192, 192, 40) 0           stem_bn[0][0]                    
__________________________________________________________________________________________________
block1a_dwconv (DepthwiseConv2D (None, 192, 192, 40) 360         stem_activation[0][0]            
__________________________________________________________________________________________________
block1a_bn (BatchNormalization) (None, 192, 192, 40) 160         block1a_dwconv[0][0]             
__________________________________________________________________________________________________
block1a_activation (Activation) (None, 192, 192, 40) 0           block1a_bn[0][0]                 
__________________________________________________________________________________________________
block1a_se_squeeze (GlobalAvera (None, 40)           0           block1a_activation[0][0]         
__________________________________________________________________________________________________
block1a_se_reshape (Reshape)    (None, 1, 1, 40)     0           block1a_se_squeeze[0][0]         
__________________________________________________________________________________________________
block1a_se_reduce (Conv2D)      (None, 1, 1, 10)     410         block1a_se_reshape[0][0]         
__________________________________________________________________________________________________
block1a_se_expand (Conv2D)      (None, 1, 1, 40)     440         block1a_se_reduce[0][0]          
__________________________________________________________________________________________________
block1a_se_excite (Multiply)    (None, 192, 192, 40) 0           block1a_activation[0][0]         
                                                                 block1a_se_expand[0][0]          
__________________________________________________________________________________________________
block1a_project_conv (Conv2D)   (None, 192, 192, 24) 960         block1a_se_excite[0][0]          
__________________________________________________________________________________________________
block1a_project_bn (BatchNormal (None, 192, 192, 24) 96          block1a_project_conv[0][0]       
__________________________________________________________________________________________________
block1b_dwconv (DepthwiseConv2D (None, 192, 192, 24) 216         block1a_project_bn[0][0]         
__________________________________________________________________________________________________
block1b_bn (BatchNormalization) (None, 192, 192, 24) 96          block1b_dwconv[0][0]             
__________________________________________________________________________________________________
block1b_activation (Activation) (None, 192, 192, 24) 0           block1b_bn[0][0]                 
__________________________________________________________________________________________________
block1b_se_squeeze (GlobalAvera (None, 24)           0           block1b_activation[0][0]         
__________________________________________________________________________________________________
block1b_se_reshape (Reshape)    (None, 1, 1, 24)     0           block1b_se_squeeze[0][0]         
__________________________________________________________________________________________________
block1b_se_reduce (Conv2D)      (None, 1, 1, 6)      150         block1b_se_reshape[0][0]         
__________________________________________________________________________________________________
block1b_se_expand (Conv2D)      (None, 1, 1, 24)     168         block1b_se_reduce[0][0]          
__________________________________________________________________________________________________
block1b_se_excite (Multiply)    (None, 192, 192, 24) 0           block1b_activation[0][0]         
                                                                 block1b_se_expand[0][0]          
__________________________________________________________________________________________________
block1b_project_conv (Conv2D)   (None, 192, 192, 24) 576         block1b_se_excite[0][0]          
__________________________________________________________________________________________________
block1b_project_bn (BatchNormal (None, 192, 192, 24) 96          block1b_project_conv[0][0]       
__________________________________________________________________________________________________
block1b_drop (FixedDropout)     (None, 192, 192, 24) 0           block1b_project_bn[0][0]         
__________________________________________________________________________________________________
block1b_add (Add)               (None, 192, 192, 24) 0           block1b_drop[0][0]               
                                                                 block1a_project_bn[0][0]         
__________________________________________________________________________________________________
block2a_expand_conv (Conv2D)    (None, 192, 192, 144 3456        block1b_add[0][0]                
__________________________________________________________________________________________________
block2a_expand_bn (BatchNormali (None, 192, 192, 144 576         block2a_expand_conv[0][0]        
__________________________________________________________________________________________________
block2a_expand_activation (Acti (None, 192, 192, 144 0           block2a_expand_bn[0][0]          
__________________________________________________________________________________________________
block2a_dwconv (DepthwiseConv2D (None, 96, 96, 144)  1296        block2a_expand_activation[0][0]  
__________________________________________________________________________________________________
block2a_bn (BatchNormalization) (None, 96, 96, 144)  576         block2a_dwconv[0][0]             
__________________________________________________________________________________________________
block2a_activation (Activation) (None, 96, 96, 144)  0           block2a_bn[0][0]                 
__________________________________________________________________________________________________
block2a_se_squeeze (GlobalAvera (None, 144)          0           block2a_activation[0][0]         
__________________________________________________________________________________________________
block2a_se_reshape (Reshape)    (None, 1, 1, 144)    0           block2a_se_squeeze[0][0]         
__________________________________________________________________________________________________
block2a_se_reduce (Conv2D)      (None, 1, 1, 6)      870         block2a_se_reshape[0][0]         
__________________________________________________________________________________________________
block2a_se_expand (Conv2D)      (None, 1, 1, 144)    1008        block2a_se_reduce[0][0]          
__________________________________________________________________________________________________
block2a_se_excite (Multiply)    (None, 96, 96, 144)  0           block2a_activation[0][0]         
                                                                 block2a_se_expand[0][0]          
__________________________________________________________________________________________________
block2a_project_conv (Conv2D)   (None, 96, 96, 32)   4608        block2a_se_excite[0][0]          
__________________________________________________________________________________________________
block2a_project_bn (BatchNormal (None, 96, 96, 32)   128         block2a_project_conv[0][0]       
__________________________________________________________________________________________________
block2b_expand_conv (Conv2D)    (None, 96, 96, 192)  6144        block2a_project_bn[0][0]         
__________________________________________________________________________________________________
block2b_expand_bn (BatchNormali (None, 96, 96, 192)  768         block2b_expand_conv[0][0]        
__________________________________________________________________________________________________
block2b_expand_activation (Acti (None, 96, 96, 192)  0           block2b_expand_bn[0][0]          
__________________________________________________________________________________________________
block2b_dwconv (DepthwiseConv2D (None, 96, 96, 192)  1728        block2b_expand_activation[0][0]  
__________________________________________________________________________________________________
block2b_bn (BatchNormalization) (None, 96, 96, 192)  768         block2b_dwconv[0][0]             
__________________________________________________________________________________________________
block2b_activation (Activation) (None, 96, 96, 192)  0           block2b_bn[0][0]                 
__________________________________________________________________________________________________
block2b_se_squeeze (GlobalAvera (None, 192)          0           block2b_activation[0][0]         
__________________________________________________________________________________________________
block2b_se_reshape (Reshape)    (None, 1, 1, 192)    0           block2b_se_squeeze[0][0]         
__________________________________________________________________________________________________
block2b_se_reduce (Conv2D)      (None, 1, 1, 8)      1544        block2b_se_reshape[0][0]         
__________________________________________________________________________________________________
block2b_se_expand (Conv2D)      (None, 1, 1, 192)    1728        block2b_se_reduce[0][0]          
__________________________________________________________________________________________________
block2b_se_excite (Multiply)    (None, 96, 96, 192)  0           block2b_activation[0][0]         
                                                                 block2b_se_expand[0][0]          
__________________________________________________________________________________________________
block2b_project_conv (Conv2D)   (None, 96, 96, 32)   6144        block2b_se_excite[0][0]          
__________________________________________________________________________________________________
block2b_project_bn (BatchNormal (None, 96, 96, 32)   128         block2b_project_conv[0][0]       
__________________________________________________________________________________________________
block2b_drop (FixedDropout)     (None, 96, 96, 32)   0           block2b_project_bn[0][0]         
__________________________________________________________________________________________________
block2b_add (Add)               (None, 96, 96, 32)   0           block2b_drop[0][0]               
                                                                 block2a_project_bn[0][0]         
__________________________________________________________________________________________________
block2c_expand_conv (Conv2D)    (None, 96, 96, 192)  6144        block2b_add[0][0]                
__________________________________________________________________________________________________
block2c_expand_bn (BatchNormali (None, 96, 96, 192)  768         block2c_expand_conv[0][0]        
__________________________________________________________________________________________________
block2c_expand_activation (Acti (None, 96, 96, 192)  0           block2c_expand_bn[0][0]          
__________________________________________________________________________________________________
block2c_dwconv (DepthwiseConv2D (None, 96, 96, 192)  1728        block2c_expand_activation[0][0]  
__________________________________________________________________________________________________
block2c_bn (BatchNormalization) (None, 96, 96, 192)  768         block2c_dwconv[0][0]             
__________________________________________________________________________________________________
block2c_activation (Activation) (None, 96, 96, 192)  0           block2c_bn[0][0]                 
__________________________________________________________________________________________________
block2c_se_squeeze (GlobalAvera (None, 192)          0           block2c_activation[0][0]         
__________________________________________________________________________________________________
block2c_se_reshape (Reshape)    (None, 1, 1, 192)    0           block2c_se_squeeze[0][0]         
__________________________________________________________________________________________________
block2c_se_reduce (Conv2D)      (None, 1, 1, 8)      1544        block2c_se_reshape[0][0]         
__________________________________________________________________________________________________
block2c_se_expand (Conv2D)      (None, 1, 1, 192)    1728        block2c_se_reduce[0][0]          
__________________________________________________________________________________________________
block2c_se_excite (Multiply)    (None, 96, 96, 192)  0           block2c_activation[0][0]         
                                                                 block2c_se_expand[0][0]          
__________________________________________________________________________________________________
block2c_project_conv (Conv2D)   (None, 96, 96, 32)   6144        block2c_se_excite[0][0]          
__________________________________________________________________________________________________
block2c_project_bn (BatchNormal (None, 96, 96, 32)   128         block2c_project_conv[0][0]       
__________________________________________________________________________________________________
block2c_drop (FixedDropout)     (None, 96, 96, 32)   0           block2c_project_bn[0][0]         
__________________________________________________________________________________________________
block2c_add (Add)               (None, 96, 96, 32)   0           block2c_drop[0][0]               
                                                                 block2b_add[0][0]                
__________________________________________________________________________________________________
block3a_expand_conv (Conv2D)    (None, 96, 96, 192)  6144        block2c_add[0][0]                
__________________________________________________________________________________________________
block3a_expand_bn (BatchNormali (None, 96, 96, 192)  768         block3a_expand_conv[0][0]        
__________________________________________________________________________________________________
block3a_expand_activation (Acti (None, 96, 96, 192)  0           block3a_expand_bn[0][0]          
__________________________________________________________________________________________________
block3a_dwconv (DepthwiseConv2D (None, 48, 48, 192)  4800        block3a_expand_activation[0][0]  
__________________________________________________________________________________________________
block3a_bn (BatchNormalization) (None, 48, 48, 192)  768         block3a_dwconv[0][0]             
__________________________________________________________________________________________________
block3a_activation (Activation) (None, 48, 48, 192)  0           block3a_bn[0][0]                 
__________________________________________________________________________________________________
block3a_se_squeeze (GlobalAvera (None, 192)          0           block3a_activation[0][0]         
__________________________________________________________________________________________________
block3a_se_reshape (Reshape)    (None, 1, 1, 192)    0           block3a_se_squeeze[0][0]         
__________________________________________________________________________________________________
block3a_se_reduce (Conv2D)      (None, 1, 1, 8)      1544        block3a_se_reshape[0][0]         
__________________________________________________________________________________________________
block3a_se_expand (Conv2D)      (None, 1, 1, 192)    1728        block3a_se_reduce[0][0]          
__________________________________________________________________________________________________
block3a_se_excite (Multiply)    (None, 48, 48, 192)  0           block3a_activation[0][0]         
                                                                 block3a_se_expand[0][0]          
__________________________________________________________________________________________________
block3a_project_conv (Conv2D)   (None, 48, 48, 48)   9216        block3a_se_excite[0][0]          
__________________________________________________________________________________________________
block3a_project_bn (BatchNormal (None, 48, 48, 48)   192         block3a_project_conv[0][0]       
__________________________________________________________________________________________________
block3b_expand_conv (Conv2D)    (None, 48, 48, 288)  13824       block3a_project_bn[0][0]         
__________________________________________________________________________________________________
block3b_expand_bn (BatchNormali (None, 48, 48, 288)  1152        block3b_expand_conv[0][0]        
__________________________________________________________________________________________________
block3b_expand_activation (Acti (None, 48, 48, 288)  0           block3b_expand_bn[0][0]          
__________________________________________________________________________________________________
block3b_dwconv (DepthwiseConv2D (None, 48, 48, 288)  7200        block3b_expand_activation[0][0]  
__________________________________________________________________________________________________
block3b_bn (BatchNormalization) (None, 48, 48, 288)  1152        block3b_dwconv[0][0]             
__________________________________________________________________________________________________
block3b_activation (Activation) (None, 48, 48, 288)  0           block3b_bn[0][0]                 
__________________________________________________________________________________________________
block3b_se_squeeze (GlobalAvera (None, 288)          0           block3b_activation[0][0]         
__________________________________________________________________________________________________
block3b_se_reshape (Reshape)    (None, 1, 1, 288)    0           block3b_se_squeeze[0][0]         
__________________________________________________________________________________________________
block3b_se_reduce (Conv2D)      (None, 1, 1, 12)     3468        block3b_se_reshape[0][0]         
__________________________________________________________________________________________________
block3b_se_expand (Conv2D)      (None, 1, 1, 288)    3744        block3b_se_reduce[0][0]          
__________________________________________________________________________________________________
block3b_se_excite (Multiply)    (None, 48, 48, 288)  0           block3b_activation[0][0]         
                                                                 block3b_se_expand[0][0]          
__________________________________________________________________________________________________
block3b_project_conv (Conv2D)   (None, 48, 48, 48)   13824       block3b_se_excite[0][0]          
__________________________________________________________________________________________________
block3b_project_bn (BatchNormal (None, 48, 48, 48)   192         block3b_project_conv[0][0]       
__________________________________________________________________________________________________
block3b_drop (FixedDropout)     (None, 48, 48, 48)   0           block3b_project_bn[0][0]         
__________________________________________________________________________________________________
block3b_add (Add)               (None, 48, 48, 48)   0           block3b_drop[0][0]               
                                                                 block3a_project_bn[0][0]         
__________________________________________________________________________________________________
block3c_expand_conv (Conv2D)    (None, 48, 48, 288)  13824       block3b_add[0][0]                
__________________________________________________________________________________________________
block3c_expand_bn (BatchNormali (None, 48, 48, 288)  1152        block3c_expand_conv[0][0]        
__________________________________________________________________________________________________
block3c_expand_activation (Acti (None, 48, 48, 288)  0           block3c_expand_bn[0][0]          
__________________________________________________________________________________________________
block3c_dwconv (DepthwiseConv2D (None, 48, 48, 288)  7200        block3c_expand_activation[0][0]  
__________________________________________________________________________________________________
block3c_bn (BatchNormalization) (None, 48, 48, 288)  1152        block3c_dwconv[0][0]             
__________________________________________________________________________________________________
block3c_activation (Activation) (None, 48, 48, 288)  0           block3c_bn[0][0]                 
__________________________________________________________________________________________________
block3c_se_squeeze (GlobalAvera (None, 288)          0           block3c_activation[0][0]         
__________________________________________________________________________________________________
block3c_se_reshape (Reshape)    (None, 1, 1, 288)    0           block3c_se_squeeze[0][0]         
__________________________________________________________________________________________________
block3c_se_reduce (Conv2D)      (None, 1, 1, 12)     3468        block3c_se_reshape[0][0]         
__________________________________________________________________________________________________
block3c_se_expand (Conv2D)      (None, 1, 1, 288)    3744        block3c_se_reduce[0][0]          
__________________________________________________________________________________________________
block3c_se_excite (Multiply)    (None, 48, 48, 288)  0           block3c_activation[0][0]         
                                                                 block3c_se_expand[0][0]          
__________________________________________________________________________________________________
block3c_project_conv (Conv2D)   (None, 48, 48, 48)   13824       block3c_se_excite[0][0]          
__________________________________________________________________________________________________
block3c_project_bn (BatchNormal (None, 48, 48, 48)   192         block3c_project_conv[0][0]       
__________________________________________________________________________________________________
block3c_drop (FixedDropout)     (None, 48, 48, 48)   0           block3c_project_bn[0][0]         
__________________________________________________________________________________________________
block3c_add (Add)               (None, 48, 48, 48)   0           block3c_drop[0][0]               
                                                                 block3b_add[0][0]                
__________________________________________________________________________________________________
block4a_expand_conv (Conv2D)    (None, 48, 48, 288)  13824       block3c_add[0][0]                
__________________________________________________________________________________________________
block4a_expand_bn (BatchNormali (None, 48, 48, 288)  1152        block4a_expand_conv[0][0]        
__________________________________________________________________________________________________
block4a_expand_activation (Acti (None, 48, 48, 288)  0           block4a_expand_bn[0][0]          
__________________________________________________________________________________________________
block4a_dwconv (DepthwiseConv2D (None, 24, 24, 288)  2592        block4a_expand_activation[0][0]  
__________________________________________________________________________________________________
block4a_bn (BatchNormalization) (None, 24, 24, 288)  1152        block4a_dwconv[0][0]             
__________________________________________________________________________________________________
block4a_activation (Activation) (None, 24, 24, 288)  0           block4a_bn[0][0]                 
__________________________________________________________________________________________________
block4a_se_squeeze (GlobalAvera (None, 288)          0           block4a_activation[0][0]         
__________________________________________________________________________________________________
block4a_se_reshape (Reshape)    (None, 1, 1, 288)    0           block4a_se_squeeze[0][0]         
__________________________________________________________________________________________________
block4a_se_reduce (Conv2D)      (None, 1, 1, 12)     3468        block4a_se_reshape[0][0]         
__________________________________________________________________________________________________
block4a_se_expand (Conv2D)      (None, 1, 1, 288)    3744        block4a_se_reduce[0][0]          
__________________________________________________________________________________________________
block4a_se_excite (Multiply)    (None, 24, 24, 288)  0           block4a_activation[0][0]         
                                                                 block4a_se_expand[0][0]          
__________________________________________________________________________________________________
block4a_project_conv (Conv2D)   (None, 24, 24, 96)   27648       block4a_se_excite[0][0]          
__________________________________________________________________________________________________
block4a_project_bn (BatchNormal (None, 24, 24, 96)   384         block4a_project_conv[0][0]       
__________________________________________________________________________________________________
block4b_expand_conv (Conv2D)    (None, 24, 24, 576)  55296       block4a_project_bn[0][0]         
__________________________________________________________________________________________________
block4b_expand_bn (BatchNormali (None, 24, 24, 576)  2304        block4b_expand_conv[0][0]        
__________________________________________________________________________________________________
block4b_expand_activation (Acti (None, 24, 24, 576)  0           block4b_expand_bn[0][0]          
__________________________________________________________________________________________________
block4b_dwconv (DepthwiseConv2D (None, 24, 24, 576)  5184        block4b_expand_activation[0][0]  
__________________________________________________________________________________________________
block4b_bn (BatchNormalization) (None, 24, 24, 576)  2304        block4b_dwconv[0][0]             
__________________________________________________________________________________________________
block4b_activation (Activation) (None, 24, 24, 576)  0           block4b_bn[0][0]                 
__________________________________________________________________________________________________
block4b_se_squeeze (GlobalAvera (None, 576)          0           block4b_activation[0][0]         
__________________________________________________________________________________________________
block4b_se_reshape (Reshape)    (None, 1, 1, 576)    0           block4b_se_squeeze[0][0]         
__________________________________________________________________________________________________
block4b_se_reduce (Conv2D)      (None, 1, 1, 24)     13848       block4b_se_reshape[0][0]         
__________________________________________________________________________________________________
block4b_se_expand (Conv2D)      (None, 1, 1, 576)    14400       block4b_se_reduce[0][0]          
__________________________________________________________________________________________________
block4b_se_excite (Multiply)    (None, 24, 24, 576)  0           block4b_activation[0][0]         
                                                                 block4b_se_expand[0][0]          
__________________________________________________________________________________________________
block4b_project_conv (Conv2D)   (None, 24, 24, 96)   55296       block4b_se_excite[0][0]          
__________________________________________________________________________________________________
block4b_project_bn (BatchNormal (None, 24, 24, 96)   384         block4b_project_conv[0][0]       
__________________________________________________________________________________________________
block4b_drop (FixedDropout)     (None, 24, 24, 96)   0           block4b_project_bn[0][0]         
__________________________________________________________________________________________________
block4b_add (Add)               (None, 24, 24, 96)   0           block4b_drop[0][0]               
                                                                 block4a_project_bn[0][0]         
__________________________________________________________________________________________________
block4c_expand_conv (Conv2D)    (None, 24, 24, 576)  55296       block4b_add[0][0]                
__________________________________________________________________________________________________
block4c_expand_bn (BatchNormali (None, 24, 24, 576)  2304        block4c_expand_conv[0][0]        
__________________________________________________________________________________________________
block4c_expand_activation (Acti (None, 24, 24, 576)  0           block4c_expand_bn[0][0]          
__________________________________________________________________________________________________
block4c_dwconv (DepthwiseConv2D (None, 24, 24, 576)  5184        block4c_expand_activation[0][0]  
__________________________________________________________________________________________________
block4c_bn (BatchNormalization) (None, 24, 24, 576)  2304        block4c_dwconv[0][0]             
__________________________________________________________________________________________________
block4c_activation (Activation) (None, 24, 24, 576)  0           block4c_bn[0][0]                 
__________________________________________________________________________________________________
block4c_se_squeeze (GlobalAvera (None, 576)          0           block4c_activation[0][0]         
__________________________________________________________________________________________________
block4c_se_reshape (Reshape)    (None, 1, 1, 576)    0           block4c_se_squeeze[0][0]         
__________________________________________________________________________________________________
block4c_se_reduce (Conv2D)      (None, 1, 1, 24)     13848       block4c_se_reshape[0][0]         
__________________________________________________________________________________________________
block4c_se_expand (Conv2D)      (None, 1, 1, 576)    14400       block4c_se_reduce[0][0]          
__________________________________________________________________________________________________
block4c_se_excite (Multiply)    (None, 24, 24, 576)  0           block4c_activation[0][0]         
                                                                 block4c_se_expand[0][0]          
__________________________________________________________________________________________________
block4c_project_conv (Conv2D)   (None, 24, 24, 96)   55296       block4c_se_excite[0][0]          
__________________________________________________________________________________________________
block4c_project_bn (BatchNormal (None, 24, 24, 96)   384         block4c_project_conv[0][0]       
__________________________________________________________________________________________________
block4c_drop (FixedDropout)     (None, 24, 24, 96)   0           block4c_project_bn[0][0]         
__________________________________________________________________________________________________
block4c_add (Add)               (None, 24, 24, 96)   0           block4c_drop[0][0]               
                                                                 block4b_add[0][0]                
__________________________________________________________________________________________________
block4d_expand_conv (Conv2D)    (None, 24, 24, 576)  55296       block4c_add[0][0]                
__________________________________________________________________________________________________
block4d_expand_bn (BatchNormali (None, 24, 24, 576)  2304        block4d_expand_conv[0][0]        
__________________________________________________________________________________________________
block4d_expand_activation (Acti (None, 24, 24, 576)  0           block4d_expand_bn[0][0]          
__________________________________________________________________________________________________
block4d_dwconv (DepthwiseConv2D (None, 24, 24, 576)  5184        block4d_expand_activation[0][0]  
__________________________________________________________________________________________________
block4d_bn (BatchNormalization) (None, 24, 24, 576)  2304        block4d_dwconv[0][0]             
__________________________________________________________________________________________________
block4d_activation (Activation) (None, 24, 24, 576)  0           block4d_bn[0][0]                 
__________________________________________________________________________________________________
block4d_se_squeeze (GlobalAvera (None, 576)          0           block4d_activation[0][0]         
__________________________________________________________________________________________________
block4d_se_reshape (Reshape)    (None, 1, 1, 576)    0           block4d_se_squeeze[0][0]         
__________________________________________________________________________________________________
block4d_se_reduce (Conv2D)      (None, 1, 1, 24)     13848       block4d_se_reshape[0][0]         
__________________________________________________________________________________________________
block4d_se_expand (Conv2D)      (None, 1, 1, 576)    14400       block4d_se_reduce[0][0]          
__________________________________________________________________________________________________
block4d_se_excite (Multiply)    (None, 24, 24, 576)  0           block4d_activation[0][0]         
                                                                 block4d_se_expand[0][0]          
__________________________________________________________________________________________________
block4d_project_conv (Conv2D)   (None, 24, 24, 96)   55296       block4d_se_excite[0][0]          
__________________________________________________________________________________________________
block4d_project_bn (BatchNormal (None, 24, 24, 96)   384         block4d_project_conv[0][0]       
__________________________________________________________________________________________________
block4d_drop (FixedDropout)     (None, 24, 24, 96)   0           block4d_project_bn[0][0]         
__________________________________________________________________________________________________
block4d_add (Add)               (None, 24, 24, 96)   0           block4d_drop[0][0]               
                                                                 block4c_add[0][0]                
__________________________________________________________________________________________________
block4e_expand_conv (Conv2D)    (None, 24, 24, 576)  55296       block4d_add[0][0]                
__________________________________________________________________________________________________
block4e_expand_bn (BatchNormali (None, 24, 24, 576)  2304        block4e_expand_conv[0][0]        
__________________________________________________________________________________________________
block4e_expand_activation (Acti (None, 24, 24, 576)  0           block4e_expand_bn[0][0]          
__________________________________________________________________________________________________
block4e_dwconv (DepthwiseConv2D (None, 24, 24, 576)  5184        block4e_expand_activation[0][0]  
__________________________________________________________________________________________________
block4e_bn (BatchNormalization) (None, 24, 24, 576)  2304        block4e_dwconv[0][0]             
__________________________________________________________________________________________________
block4e_activation (Activation) (None, 24, 24, 576)  0           block4e_bn[0][0]                 
__________________________________________________________________________________________________
block4e_se_squeeze (GlobalAvera (None, 576)          0           block4e_activation[0][0]         
__________________________________________________________________________________________________
block4e_se_reshape (Reshape)    (None, 1, 1, 576)    0           block4e_se_squeeze[0][0]         
__________________________________________________________________________________________________
block4e_se_reduce (Conv2D)      (None, 1, 1, 24)     13848       block4e_se_reshape[0][0]         
__________________________________________________________________________________________________
block4e_se_expand (Conv2D)      (None, 1, 1, 576)    14400       block4e_se_reduce[0][0]          
__________________________________________________________________________________________________
block4e_se_excite (Multiply)    (None, 24, 24, 576)  0           block4e_activation[0][0]         
                                                                 block4e_se_expand[0][0]          
__________________________________________________________________________________________________
block4e_project_conv (Conv2D)   (None, 24, 24, 96)   55296       block4e_se_excite[0][0]          
__________________________________________________________________________________________________
block4e_project_bn (BatchNormal (None, 24, 24, 96)   384         block4e_project_conv[0][0]       
__________________________________________________________________________________________________
block4e_drop (FixedDropout)     (None, 24, 24, 96)   0           block4e_project_bn[0][0]         
__________________________________________________________________________________________________
block4e_add (Add)               (None, 24, 24, 96)   0           block4e_drop[0][0]               
                                                                 block4d_add[0][0]                
__________________________________________________________________________________________________
block5a_expand_conv (Conv2D)    (None, 24, 24, 576)  55296       block4e_add[0][0]                
__________________________________________________________________________________________________
block5a_expand_bn (BatchNormali (None, 24, 24, 576)  2304        block5a_expand_conv[0][0]        
__________________________________________________________________________________________________
block5a_expand_activation (Acti (None, 24, 24, 576)  0           block5a_expand_bn[0][0]          
__________________________________________________________________________________________________
block5a_dwconv (DepthwiseConv2D (None, 24, 24, 576)  14400       block5a_expand_activation[0][0]  
__________________________________________________________________________________________________
block5a_bn (BatchNormalization) (None, 24, 24, 576)  2304        block5a_dwconv[0][0]             
__________________________________________________________________________________________________
block5a_activation (Activation) (None, 24, 24, 576)  0           block5a_bn[0][0]                 
__________________________________________________________________________________________________
block5a_se_squeeze (GlobalAvera (None, 576)          0           block5a_activation[0][0]         
__________________________________________________________________________________________________
block5a_se_reshape (Reshape)    (None, 1, 1, 576)    0           block5a_se_squeeze[0][0]         
__________________________________________________________________________________________________
block5a_se_reduce (Conv2D)      (None, 1, 1, 24)     13848       block5a_se_reshape[0][0]         
__________________________________________________________________________________________________
block5a_se_expand (Conv2D)      (None, 1, 1, 576)    14400       block5a_se_reduce[0][0]          
__________________________________________________________________________________________________
block5a_se_excite (Multiply)    (None, 24, 24, 576)  0           block5a_activation[0][0]         
                                                                 block5a_se_expand[0][0]          
__________________________________________________________________________________________________
block5a_project_conv (Conv2D)   (None, 24, 24, 136)  78336       block5a_se_excite[0][0]          
__________________________________________________________________________________________________
block5a_project_bn (BatchNormal (None, 24, 24, 136)  544         block5a_project_conv[0][0]       
__________________________________________________________________________________________________
block5b_expand_conv (Conv2D)    (None, 24, 24, 816)  110976      block5a_project_bn[0][0]         
__________________________________________________________________________________________________
block5b_expand_bn (BatchNormali (None, 24, 24, 816)  3264        block5b_expand_conv[0][0]        
__________________________________________________________________________________________________
block5b_expand_activation (Acti (None, 24, 24, 816)  0           block5b_expand_bn[0][0]          
__________________________________________________________________________________________________
block5b_dwconv (DepthwiseConv2D (None, 24, 24, 816)  20400       block5b_expand_activation[0][0]  
__________________________________________________________________________________________________
block5b_bn (BatchNormalization) (None, 24, 24, 816)  3264        block5b_dwconv[0][0]             
__________________________________________________________________________________________________
block5b_activation (Activation) (None, 24, 24, 816)  0           block5b_bn[0][0]                 
__________________________________________________________________________________________________
block5b_se_squeeze (GlobalAvera (None, 816)          0           block5b_activation[0][0]         
__________________________________________________________________________________________________
block5b_se_reshape (Reshape)    (None, 1, 1, 816)    0           block5b_se_squeeze[0][0]         
__________________________________________________________________________________________________
block5b_se_reduce (Conv2D)      (None, 1, 1, 34)     27778       block5b_se_reshape[0][0]         
__________________________________________________________________________________________________
block5b_se_expand (Conv2D)      (None, 1, 1, 816)    28560       block5b_se_reduce[0][0]          
__________________________________________________________________________________________________
block5b_se_excite (Multiply)    (None, 24, 24, 816)  0           block5b_activation[0][0]         
                                                                 block5b_se_expand[0][0]          
__________________________________________________________________________________________________
block5b_project_conv (Conv2D)   (None, 24, 24, 136)  110976      block5b_se_excite[0][0]          
__________________________________________________________________________________________________
block5b_project_bn (BatchNormal (None, 24, 24, 136)  544         block5b_project_conv[0][0]       
__________________________________________________________________________________________________
block5b_drop (FixedDropout)     (None, 24, 24, 136)  0           block5b_project_bn[0][0]         
__________________________________________________________________________________________________
block5b_add (Add)               (None, 24, 24, 136)  0           block5b_drop[0][0]               
                                                                 block5a_project_bn[0][0]         
__________________________________________________________________________________________________
block5c_expand_conv (Conv2D)    (None, 24, 24, 816)  110976      block5b_add[0][0]                
__________________________________________________________________________________________________
block5c_expand_bn (BatchNormali (None, 24, 24, 816)  3264        block5c_expand_conv[0][0]        
__________________________________________________________________________________________________
block5c_expand_activation (Acti (None, 24, 24, 816)  0           block5c_expand_bn[0][0]          
__________________________________________________________________________________________________
block5c_dwconv (DepthwiseConv2D (None, 24, 24, 816)  20400       block5c_expand_activation[0][0]  
__________________________________________________________________________________________________
block5c_bn (BatchNormalization) (None, 24, 24, 816)  3264        block5c_dwconv[0][0]             
__________________________________________________________________________________________________
block5c_activation (Activation) (None, 24, 24, 816)  0           block5c_bn[0][0]                 
__________________________________________________________________________________________________
block5c_se_squeeze (GlobalAvera (None, 816)          0           block5c_activation[0][0]         
__________________________________________________________________________________________________
block5c_se_reshape (Reshape)    (None, 1, 1, 816)    0           block5c_se_squeeze[0][0]         
__________________________________________________________________________________________________
block5c_se_reduce (Conv2D)      (None, 1, 1, 34)     27778       block5c_se_reshape[0][0]         
__________________________________________________________________________________________________
block5c_se_expand (Conv2D)      (None, 1, 1, 816)    28560       block5c_se_reduce[0][0]          
__________________________________________________________________________________________________
block5c_se_excite (Multiply)    (None, 24, 24, 816)  0           block5c_activation[0][0]         
                                                                 block5c_se_expand[0][0]          
__________________________________________________________________________________________________
block5c_project_conv (Conv2D)   (None, 24, 24, 136)  110976      block5c_se_excite[0][0]          
__________________________________________________________________________________________________
block5c_project_bn (BatchNormal (None, 24, 24, 136)  544         block5c_project_conv[0][0]       
__________________________________________________________________________________________________
block5c_drop (FixedDropout)     (None, 24, 24, 136)  0           block5c_project_bn[0][0]         
__________________________________________________________________________________________________
block5c_add (Add)               (None, 24, 24, 136)  0           block5c_drop[0][0]               
                                                                 block5b_add[0][0]                
__________________________________________________________________________________________________
block5d_expand_conv (Conv2D)    (None, 24, 24, 816)  110976      block5c_add[0][0]                
__________________________________________________________________________________________________
block5d_expand_bn (BatchNormali (None, 24, 24, 816)  3264        block5d_expand_conv[0][0]        
__________________________________________________________________________________________________
block5d_expand_activation (Acti (None, 24, 24, 816)  0           block5d_expand_bn[0][0]          
__________________________________________________________________________________________________
block5d_dwconv (DepthwiseConv2D (None, 24, 24, 816)  20400       block5d_expand_activation[0][0]  
__________________________________________________________________________________________________
block5d_bn (BatchNormalization) (None, 24, 24, 816)  3264        block5d_dwconv[0][0]             
__________________________________________________________________________________________________
block5d_activation (Activation) (None, 24, 24, 816)  0           block5d_bn[0][0]                 
__________________________________________________________________________________________________
block5d_se_squeeze (GlobalAvera (None, 816)          0           block5d_activation[0][0]         
__________________________________________________________________________________________________
block5d_se_reshape (Reshape)    (None, 1, 1, 816)    0           block5d_se_squeeze[0][0]         
__________________________________________________________________________________________________
block5d_se_reduce (Conv2D)      (None, 1, 1, 34)     27778       block5d_se_reshape[0][0]         
__________________________________________________________________________________________________
block5d_se_expand (Conv2D)      (None, 1, 1, 816)    28560       block5d_se_reduce[0][0]          
__________________________________________________________________________________________________
block5d_se_excite (Multiply)    (None, 24, 24, 816)  0           block5d_activation[0][0]         
                                                                 block5d_se_expand[0][0]          
__________________________________________________________________________________________________
block5d_project_conv (Conv2D)   (None, 24, 24, 136)  110976      block5d_se_excite[0][0]          
__________________________________________________________________________________________________
block5d_project_bn (BatchNormal (None, 24, 24, 136)  544         block5d_project_conv[0][0]       
__________________________________________________________________________________________________
block5d_drop (FixedDropout)     (None, 24, 24, 136)  0           block5d_project_bn[0][0]         
__________________________________________________________________________________________________
block5d_add (Add)               (None, 24, 24, 136)  0           block5d_drop[0][0]               
                                                                 block5c_add[0][0]                
__________________________________________________________________________________________________
block5e_expand_conv (Conv2D)    (None, 24, 24, 816)  110976      block5d_add[0][0]                
__________________________________________________________________________________________________
block5e_expand_bn (BatchNormali (None, 24, 24, 816)  3264        block5e_expand_conv[0][0]        
__________________________________________________________________________________________________
block5e_expand_activation (Acti (None, 24, 24, 816)  0           block5e_expand_bn[0][0]          
__________________________________________________________________________________________________
block5e_dwconv (DepthwiseConv2D (None, 24, 24, 816)  20400       block5e_expand_activation[0][0]  
__________________________________________________________________________________________________
block5e_bn (BatchNormalization) (None, 24, 24, 816)  3264        block5e_dwconv[0][0]             
__________________________________________________________________________________________________
block5e_activation (Activation) (None, 24, 24, 816)  0           block5e_bn[0][0]                 
__________________________________________________________________________________________________
block5e_se_squeeze (GlobalAvera (None, 816)          0           block5e_activation[0][0]         
__________________________________________________________________________________________________
block5e_se_reshape (Reshape)    (None, 1, 1, 816)    0           block5e_se_squeeze[0][0]         
__________________________________________________________________________________________________
block5e_se_reduce (Conv2D)      (None, 1, 1, 34)     27778       block5e_se_reshape[0][0]         
__________________________________________________________________________________________________
block5e_se_expand (Conv2D)      (None, 1, 1, 816)    28560       block5e_se_reduce[0][0]          
__________________________________________________________________________________________________
block5e_se_excite (Multiply)    (None, 24, 24, 816)  0           block5e_activation[0][0]         
                                                                 block5e_se_expand[0][0]          
__________________________________________________________________________________________________
block5e_project_conv (Conv2D)   (None, 24, 24, 136)  110976      block5e_se_excite[0][0]          
__________________________________________________________________________________________________
block5e_project_bn (BatchNormal (None, 24, 24, 136)  544         block5e_project_conv[0][0]       
__________________________________________________________________________________________________
block5e_drop (FixedDropout)     (None, 24, 24, 136)  0           block5e_project_bn[0][0]         
__________________________________________________________________________________________________
block5e_add (Add)               (None, 24, 24, 136)  0           block5e_drop[0][0]               
                                                                 block5d_add[0][0]                
__________________________________________________________________________________________________
block6a_expand_conv (Conv2D)    (None, 24, 24, 816)  110976      block5e_add[0][0]                
__________________________________________________________________________________________________
block6a_expand_bn (BatchNormali (None, 24, 24, 816)  3264        block6a_expand_conv[0][0]        
__________________________________________________________________________________________________
block6a_expand_activation (Acti (None, 24, 24, 816)  0           block6a_expand_bn[0][0]          
__________________________________________________________________________________________________
block6a_dwconv (DepthwiseConv2D (None, 12, 12, 816)  20400       block6a_expand_activation[0][0]  
__________________________________________________________________________________________________
block6a_bn (BatchNormalization) (None, 12, 12, 816)  3264        block6a_dwconv[0][0]             
__________________________________________________________________________________________________
block6a_activation (Activation) (None, 12, 12, 816)  0           block6a_bn[0][0]                 
__________________________________________________________________________________________________
block6a_se_squeeze (GlobalAvera (None, 816)          0           block6a_activation[0][0]         
__________________________________________________________________________________________________
block6a_se_reshape (Reshape)    (None, 1, 1, 816)    0           block6a_se_squeeze[0][0]         
__________________________________________________________________________________________________
block6a_se_reduce (Conv2D)      (None, 1, 1, 34)     27778       block6a_se_reshape[0][0]         
__________________________________________________________________________________________________
block6a_se_expand (Conv2D)      (None, 1, 1, 816)    28560       block6a_se_reduce[0][0]          
__________________________________________________________________________________________________
block6a_se_excite (Multiply)    (None, 12, 12, 816)  0           block6a_activation[0][0]         
                                                                 block6a_se_expand[0][0]          
__________________________________________________________________________________________________
block6a_project_conv (Conv2D)   (None, 12, 12, 232)  189312      block6a_se_excite[0][0]          
__________________________________________________________________________________________________
block6a_project_bn (BatchNormal (None, 12, 12, 232)  928         block6a_project_conv[0][0]       
__________________________________________________________________________________________________
block6b_expand_conv (Conv2D)    (None, 12, 12, 1392) 322944      block6a_project_bn[0][0]         
__________________________________________________________________________________________________
block6b_expand_bn (BatchNormali (None, 12, 12, 1392) 5568        block6b_expand_conv[0][0]        
__________________________________________________________________________________________________
block6b_expand_activation (Acti (None, 12, 12, 1392) 0           block6b_expand_bn[0][0]          
__________________________________________________________________________________________________
block6b_dwconv (DepthwiseConv2D (None, 12, 12, 1392) 34800       block6b_expand_activation[0][0]  
__________________________________________________________________________________________________
block6b_bn (BatchNormalization) (None, 12, 12, 1392) 5568        block6b_dwconv[0][0]             
__________________________________________________________________________________________________
block6b_activation (Activation) (None, 12, 12, 1392) 0           block6b_bn[0][0]                 
__________________________________________________________________________________________________
block6b_se_squeeze (GlobalAvera (None, 1392)         0           block6b_activation[0][0]         
__________________________________________________________________________________________________
block6b_se_reshape (Reshape)    (None, 1, 1, 1392)   0           block6b_se_squeeze[0][0]         
__________________________________________________________________________________________________
block6b_se_reduce (Conv2D)      (None, 1, 1, 58)     80794       block6b_se_reshape[0][0]         
__________________________________________________________________________________________________
block6b_se_expand (Conv2D)      (None, 1, 1, 1392)   82128       block6b_se_reduce[0][0]          
__________________________________________________________________________________________________
block6b_se_excite (Multiply)    (None, 12, 12, 1392) 0           block6b_activation[0][0]         
                                                                 block6b_se_expand[0][0]          
__________________________________________________________________________________________________
block6b_project_conv (Conv2D)   (None, 12, 12, 232)  322944      block6b_se_excite[0][0]          
__________________________________________________________________________________________________
block6b_project_bn (BatchNormal (None, 12, 12, 232)  928         block6b_project_conv[0][0]       
__________________________________________________________________________________________________
block6b_drop (FixedDropout)     (None, 12, 12, 232)  0           block6b_project_bn[0][0]         
__________________________________________________________________________________________________
block6b_add (Add)               (None, 12, 12, 232)  0           block6b_drop[0][0]               
                                                                 block6a_project_bn[0][0]         
__________________________________________________________________________________________________
block6c_expand_conv (Conv2D)    (None, 12, 12, 1392) 322944      block6b_add[0][0]                
__________________________________________________________________________________________________
block6c_expand_bn (BatchNormali (None, 12, 12, 1392) 5568        block6c_expand_conv[0][0]        
__________________________________________________________________________________________________
block6c_expand_activation (Acti (None, 12, 12, 1392) 0           block6c_expand_bn[0][0]          
__________________________________________________________________________________________________
block6c_dwconv (DepthwiseConv2D (None, 12, 12, 1392) 34800       block6c_expand_activation[0][0]  
__________________________________________________________________________________________________
block6c_bn (BatchNormalization) (None, 12, 12, 1392) 5568        block6c_dwconv[0][0]             
__________________________________________________________________________________________________
block6c_activation (Activation) (None, 12, 12, 1392) 0           block6c_bn[0][0]                 
__________________________________________________________________________________________________
block6c_se_squeeze (GlobalAvera (None, 1392)         0           block6c_activation[0][0]         
__________________________________________________________________________________________________
block6c_se_reshape (Reshape)    (None, 1, 1, 1392)   0           block6c_se_squeeze[0][0]         
__________________________________________________________________________________________________
block6c_se_reduce (Conv2D)      (None, 1, 1, 58)     80794       block6c_se_reshape[0][0]         
__________________________________________________________________________________________________
block6c_se_expand (Conv2D)      (None, 1, 1, 1392)   82128       block6c_se_reduce[0][0]          
__________________________________________________________________________________________________
block6c_se_excite (Multiply)    (None, 12, 12, 1392) 0           block6c_activation[0][0]         
                                                                 block6c_se_expand[0][0]          
__________________________________________________________________________________________________
block6c_project_conv (Conv2D)   (None, 12, 12, 232)  322944      block6c_se_excite[0][0]          
__________________________________________________________________________________________________
block6c_project_bn (BatchNormal (None, 12, 12, 232)  928         block6c_project_conv[0][0]       
__________________________________________________________________________________________________
block6c_drop (FixedDropout)     (None, 12, 12, 232)  0           block6c_project_bn[0][0]         
__________________________________________________________________________________________________
block6c_add (Add)               (None, 12, 12, 232)  0           block6c_drop[0][0]               
                                                                 block6b_add[0][0]                
__________________________________________________________________________________________________
block6d_expand_conv (Conv2D)    (None, 12, 12, 1392) 322944      block6c_add[0][0]                
__________________________________________________________________________________________________
block6d_expand_bn (BatchNormali (None, 12, 12, 1392) 5568        block6d_expand_conv[0][0]        
__________________________________________________________________________________________________
block6d_expand_activation (Acti (None, 12, 12, 1392) 0           block6d_expand_bn[0][0]          
__________________________________________________________________________________________________
block6d_dwconv (DepthwiseConv2D (None, 12, 12, 1392) 34800       block6d_expand_activation[0][0]  
__________________________________________________________________________________________________
block6d_bn (BatchNormalization) (None, 12, 12, 1392) 5568        block6d_dwconv[0][0]             
__________________________________________________________________________________________________
block6d_activation (Activation) (None, 12, 12, 1392) 0           block6d_bn[0][0]                 
__________________________________________________________________________________________________
block6d_se_squeeze (GlobalAvera (None, 1392)         0           block6d_activation[0][0]         
__________________________________________________________________________________________________
block6d_se_reshape (Reshape)    (None, 1, 1, 1392)   0           block6d_se_squeeze[0][0]         
__________________________________________________________________________________________________
block6d_se_reduce (Conv2D)      (None, 1, 1, 58)     80794       block6d_se_reshape[0][0]         
__________________________________________________________________________________________________
block6d_se_expand (Conv2D)      (None, 1, 1, 1392)   82128       block6d_se_reduce[0][0]          
__________________________________________________________________________________________________
block6d_se_excite (Multiply)    (None, 12, 12, 1392) 0           block6d_activation[0][0]         
                                                                 block6d_se_expand[0][0]          
__________________________________________________________________________________________________
block6d_project_conv (Conv2D)   (None, 12, 12, 232)  322944      block6d_se_excite[0][0]          
__________________________________________________________________________________________________
block6d_project_bn (BatchNormal (None, 12, 12, 232)  928         block6d_project_conv[0][0]       
__________________________________________________________________________________________________
block6d_drop (FixedDropout)     (None, 12, 12, 232)  0           block6d_project_bn[0][0]         
__________________________________________________________________________________________________
block6d_add (Add)               (None, 12, 12, 232)  0           block6d_drop[0][0]               
                                                                 block6c_add[0][0]                
__________________________________________________________________________________________________
block6e_expand_conv (Conv2D)    (None, 12, 12, 1392) 322944      block6d_add[0][0]                
__________________________________________________________________________________________________
block6e_expand_bn (BatchNormali (None, 12, 12, 1392) 5568        block6e_expand_conv[0][0]        
__________________________________________________________________________________________________
block6e_expand_activation (Acti (None, 12, 12, 1392) 0           block6e_expand_bn[0][0]          
__________________________________________________________________________________________________
block6e_dwconv (DepthwiseConv2D (None, 12, 12, 1392) 34800       block6e_expand_activation[0][0]  
__________________________________________________________________________________________________
block6e_bn (BatchNormalization) (None, 12, 12, 1392) 5568        block6e_dwconv[0][0]             
__________________________________________________________________________________________________
block6e_activation (Activation) (None, 12, 12, 1392) 0           block6e_bn[0][0]                 
__________________________________________________________________________________________________
block6e_se_squeeze (GlobalAvera (None, 1392)         0           block6e_activation[0][0]         
__________________________________________________________________________________________________
block6e_se_reshape (Reshape)    (None, 1, 1, 1392)   0           block6e_se_squeeze[0][0]         
__________________________________________________________________________________________________
block6e_se_reduce (Conv2D)      (None, 1, 1, 58)     80794       block6e_se_reshape[0][0]         
__________________________________________________________________________________________________
block6e_se_expand (Conv2D)      (None, 1, 1, 1392)   82128       block6e_se_reduce[0][0]          
__________________________________________________________________________________________________
block6e_se_excite (Multiply)    (None, 12, 12, 1392) 0           block6e_activation[0][0]         
                                                                 block6e_se_expand[0][0]          
__________________________________________________________________________________________________
block6e_project_conv (Conv2D)   (None, 12, 12, 232)  322944      block6e_se_excite[0][0]          
__________________________________________________________________________________________________
block6e_project_bn (BatchNormal (None, 12, 12, 232)  928         block6e_project_conv[0][0]       
__________________________________________________________________________________________________
block6e_drop (FixedDropout)     (None, 12, 12, 232)  0           block6e_project_bn[0][0]         
__________________________________________________________________________________________________
block6e_add (Add)               (None, 12, 12, 232)  0           block6e_drop[0][0]               
                                                                 block6d_add[0][0]                
__________________________________________________________________________________________________
block6f_expand_conv (Conv2D)    (None, 12, 12, 1392) 322944      block6e_add[0][0]                
__________________________________________________________________________________________________
block6f_expand_bn (BatchNormali (None, 12, 12, 1392) 5568        block6f_expand_conv[0][0]        
__________________________________________________________________________________________________
block6f_expand_activation (Acti (None, 12, 12, 1392) 0           block6f_expand_bn[0][0]          
__________________________________________________________________________________________________
block6f_dwconv (DepthwiseConv2D (None, 12, 12, 1392) 34800       block6f_expand_activation[0][0]  
__________________________________________________________________________________________________
block6f_bn (BatchNormalization) (None, 12, 12, 1392) 5568        block6f_dwconv[0][0]             
__________________________________________________________________________________________________
block6f_activation (Activation) (None, 12, 12, 1392) 0           block6f_bn[0][0]                 
__________________________________________________________________________________________________
block6f_se_squeeze (GlobalAvera (None, 1392)         0           block6f_activation[0][0]         
__________________________________________________________________________________________________
block6f_se_reshape (Reshape)    (None, 1, 1, 1392)   0           block6f_se_squeeze[0][0]         
__________________________________________________________________________________________________
block6f_se_reduce (Conv2D)      (None, 1, 1, 58)     80794       block6f_se_reshape[0][0]         
__________________________________________________________________________________________________
block6f_se_expand (Conv2D)      (None, 1, 1, 1392)   82128       block6f_se_reduce[0][0]          
__________________________________________________________________________________________________
block6f_se_excite (Multiply)    (None, 12, 12, 1392) 0           block6f_activation[0][0]         
                                                                 block6f_se_expand[0][0]          
__________________________________________________________________________________________________
block6f_project_conv (Conv2D)   (None, 12, 12, 232)  322944      block6f_se_excite[0][0]          
__________________________________________________________________________________________________
block6f_project_bn (BatchNormal (None, 12, 12, 232)  928         block6f_project_conv[0][0]       
__________________________________________________________________________________________________
block6f_drop (FixedDropout)     (None, 12, 12, 232)  0           block6f_project_bn[0][0]         
__________________________________________________________________________________________________
block6f_add (Add)               (None, 12, 12, 232)  0           block6f_drop[0][0]               
                                                                 block6e_add[0][0]                
__________________________________________________________________________________________________
block7a_expand_conv (Conv2D)    (None, 12, 12, 1392) 322944      block6f_add[0][0]                
__________________________________________________________________________________________________
block7a_expand_bn (BatchNormali (None, 12, 12, 1392) 5568        block7a_expand_conv[0][0]        
__________________________________________________________________________________________________
block7a_expand_activation (Acti (None, 12, 12, 1392) 0           block7a_expand_bn[0][0]          
__________________________________________________________________________________________________
block7a_dwconv (DepthwiseConv2D (None, 12, 12, 1392) 12528       block7a_expand_activation[0][0]  
__________________________________________________________________________________________________
block7a_bn (BatchNormalization) (None, 12, 12, 1392) 5568        block7a_dwconv[0][0]             
__________________________________________________________________________________________________
block7a_activation (Activation) (None, 12, 12, 1392) 0           block7a_bn[0][0]                 
__________________________________________________________________________________________________
block7a_se_squeeze (GlobalAvera (None, 1392)         0           block7a_activation[0][0]         
__________________________________________________________________________________________________
block7a_se_reshape (Reshape)    (None, 1, 1, 1392)   0           block7a_se_squeeze[0][0]         
__________________________________________________________________________________________________
block7a_se_reduce (Conv2D)      (None, 1, 1, 58)     80794       block7a_se_reshape[0][0]         
__________________________________________________________________________________________________
block7a_se_expand (Conv2D)      (None, 1, 1, 1392)   82128       block7a_se_reduce[0][0]          
__________________________________________________________________________________________________
block7a_se_excite (Multiply)    (None, 12, 12, 1392) 0           block7a_activation[0][0]         
                                                                 block7a_se_expand[0][0]          
__________________________________________________________________________________________________
block7a_project_conv (Conv2D)   (None, 12, 12, 384)  534528      block7a_se_excite[0][0]          
__________________________________________________________________________________________________
block7a_project_bn (BatchNormal (None, 12, 12, 384)  1536        block7a_project_conv[0][0]       
__________________________________________________________________________________________________
block7b_expand_conv (Conv2D)    (None, 12, 12, 2304) 884736      block7a_project_bn[0][0]         
__________________________________________________________________________________________________
block7b_expand_bn (BatchNormali (None, 12, 12, 2304) 9216        block7b_expand_conv[0][0]        
__________________________________________________________________________________________________
block7b_expand_activation (Acti (None, 12, 12, 2304) 0           block7b_expand_bn[0][0]          
__________________________________________________________________________________________________
block7b_dwconv (DepthwiseConv2D (None, 12, 12, 2304) 20736       block7b_expand_activation[0][0]  
__________________________________________________________________________________________________
block7b_bn (BatchNormalization) (None, 12, 12, 2304) 9216        block7b_dwconv[0][0]             
__________________________________________________________________________________________________
block7b_activation (Activation) (None, 12, 12, 2304) 0           block7b_bn[0][0]                 
__________________________________________________________________________________________________
block7b_se_squeeze (GlobalAvera (None, 2304)         0           block7b_activation[0][0]         
__________________________________________________________________________________________________
block7b_se_reshape (Reshape)    (None, 1, 1, 2304)   0           block7b_se_squeeze[0][0]         
__________________________________________________________________________________________________
block7b_se_reduce (Conv2D)      (None, 1, 1, 96)     221280      block7b_se_reshape[0][0]         
__________________________________________________________________________________________________
block7b_se_expand (Conv2D)      (None, 1, 1, 2304)   223488      block7b_se_reduce[0][0]          
__________________________________________________________________________________________________
block7b_se_excite (Multiply)    (None, 12, 12, 2304) 0           block7b_activation[0][0]         
                                                                 block7b_se_expand[0][0]          
__________________________________________________________________________________________________
block7b_project_conv (Conv2D)   (None, 12, 12, 384)  884736      block7b_se_excite[0][0]          
__________________________________________________________________________________________________
block7b_project_bn (BatchNormal (None, 12, 12, 384)  1536        block7b_project_conv[0][0]       
__________________________________________________________________________________________________
block7b_drop (FixedDropout)     (None, 12, 12, 384)  0           block7b_project_bn[0][0]         
__________________________________________________________________________________________________
block7b_add (Add)               (None, 12, 12, 384)  0           block7b_drop[0][0]               
                                                                 block7a_project_bn[0][0]         
__________________________________________________________________________________________________
top_conv (Conv2D)               (None, 12, 12, 1536) 589824      block7b_add[0][0]                
__________________________________________________________________________________________________
top_bn (BatchNormalization)     (None, 12, 12, 1536) 6144        top_conv[0][0]                   
__________________________________________________________________________________________________
top_activation (Activation)     (None, 12, 12, 1536) 0           top_bn[0][0]                     
__________________________________________________________________________________________________
decoder_stage0_upsampling (UpSa (None, 24, 24, 1536) 0           top_activation[0][0]             
__________________________________________________________________________________________________
decoder_stage0_concat (Concaten (None, 24, 24, 2352) 0           decoder_stage0_upsampling[0][0]  
                                                                 block6a_expand_activation[0][0]  
__________________________________________________________________________________________________
decoder_stage0a_conv (Conv2D)   (None, 24, 24, 256)  5419008     decoder_stage0_concat[0][0]      
__________________________________________________________________________________________________
decoder_stage0a_bn (BatchNormal (None, 24, 24, 256)  1024        decoder_stage0a_conv[0][0]       
__________________________________________________________________________________________________
decoder_stage0a_relu (Activatio (None, 24, 24, 256)  0           decoder_stage0a_bn[0][0]         
__________________________________________________________________________________________________
decoder_stage0b_conv (Conv2D)   (None, 24, 24, 256)  589824      decoder_stage0a_relu[0][0]       
__________________________________________________________________________________________________
decoder_stage0b_bn (BatchNormal (None, 24, 24, 256)  1024        decoder_stage0b_conv[0][0]       
__________________________________________________________________________________________________
decoder_stage0b_relu (Activatio (None, 24, 24, 256)  0           decoder_stage0b_bn[0][0]         
__________________________________________________________________________________________________
decoder_stage1_upsampling (UpSa (None, 48, 48, 256)  0           decoder_stage0b_relu[0][0]       
__________________________________________________________________________________________________
decoder_stage1_concat (Concaten (None, 48, 48, 544)  0           decoder_stage1_upsampling[0][0]  
                                                                 block4a_expand_activation[0][0]  
__________________________________________________________________________________________________
decoder_stage1a_conv (Conv2D)   (None, 48, 48, 128)  626688      decoder_stage1_concat[0][0]      
__________________________________________________________________________________________________
decoder_stage1a_bn (BatchNormal (None, 48, 48, 128)  512         decoder_stage1a_conv[0][0]       
__________________________________________________________________________________________________
decoder_stage1a_relu (Activatio (None, 48, 48, 128)  0           decoder_stage1a_bn[0][0]         
__________________________________________________________________________________________________
decoder_stage1b_conv (Conv2D)   (None, 48, 48, 128)  147456      decoder_stage1a_relu[0][0]       
__________________________________________________________________________________________________
decoder_stage1b_bn (BatchNormal (None, 48, 48, 128)  512         decoder_stage1b_conv[0][0]       
__________________________________________________________________________________________________
decoder_stage1b_relu (Activatio (None, 48, 48, 128)  0           decoder_stage1b_bn[0][0]         
__________________________________________________________________________________________________
decoder_stage2_upsampling (UpSa (None, 96, 96, 128)  0           decoder_stage1b_relu[0][0]       
__________________________________________________________________________________________________
decoder_stage2_concat (Concaten (None, 96, 96, 320)  0           decoder_stage2_upsampling[0][0]  
                                                                 block3a_expand_activation[0][0]  
__________________________________________________________________________________________________
decoder_stage2a_conv (Conv2D)   (None, 96, 96, 64)   184320      decoder_stage2_concat[0][0]      
__________________________________________________________________________________________________
decoder_stage2a_bn (BatchNormal (None, 96, 96, 64)   256         decoder_stage2a_conv[0][0]       
__________________________________________________________________________________________________
decoder_stage2a_relu (Activatio (None, 96, 96, 64)   0           decoder_stage2a_bn[0][0]         
__________________________________________________________________________________________________
decoder_stage2b_conv (Conv2D)   (None, 96, 96, 64)   36864       decoder_stage2a_relu[0][0]       
__________________________________________________________________________________________________
decoder_stage2b_bn (BatchNormal (None, 96, 96, 64)   256         decoder_stage2b_conv[0][0]       
__________________________________________________________________________________________________
decoder_stage2b_relu (Activatio (None, 96, 96, 64)   0           decoder_stage2b_bn[0][0]         
__________________________________________________________________________________________________
decoder_stage3_upsampling (UpSa (None, 192, 192, 64) 0           decoder_stage2b_relu[0][0]       
__________________________________________________________________________________________________
decoder_stage3_concat (Concaten (None, 192, 192, 208 0           decoder_stage3_upsampling[0][0]  
                                                                 block2a_expand_activation[0][0]  
__________________________________________________________________________________________________
decoder_stage3a_conv (Conv2D)   (None, 192, 192, 32) 59904       decoder_stage3_concat[0][0]      
__________________________________________________________________________________________________
decoder_stage3a_bn (BatchNormal (None, 192, 192, 32) 128         decoder_stage3a_conv[0][0]       
__________________________________________________________________________________________________
decoder_stage3a_relu (Activatio (None, 192, 192, 32) 0           decoder_stage3a_bn[0][0]         
__________________________________________________________________________________________________
decoder_stage3b_conv (Conv2D)   (None, 192, 192, 32) 9216        decoder_stage3a_relu[0][0]       
__________________________________________________________________________________________________
decoder_stage3b_bn (BatchNormal (None, 192, 192, 32) 128         decoder_stage3b_conv[0][0]       
__________________________________________________________________________________________________
decoder_stage3b_relu (Activatio (None, 192, 192, 32) 0           decoder_stage3b_bn[0][0]         
__________________________________________________________________________________________________
decoder_stage4_upsampling (UpSa (None, 384, 384, 32) 0           decoder_stage3b_relu[0][0]       
__________________________________________________________________________________________________
decoder_stage4a_conv (Conv2D)   (None, 384, 384, 16) 4608        decoder_stage4_upsampling[0][0]  
__________________________________________________________________________________________________
decoder_stage4a_bn (BatchNormal (None, 384, 384, 16) 64          decoder_stage4a_conv[0][0]       
__________________________________________________________________________________________________
decoder_stage4a_relu (Activatio (None, 384, 384, 16) 0           decoder_stage4a_bn[0][0]         
__________________________________________________________________________________________________
decoder_stage4b_conv (Conv2D)   (None, 384, 384, 16) 2304        decoder_stage4a_relu[0][0]       
__________________________________________________________________________________________________
decoder_stage4b_bn (BatchNormal (None, 384, 384, 16) 64          decoder_stage4b_conv[0][0]       
__________________________________________________________________________________________________
decoder_stage4b_relu (Activatio (None, 384, 384, 16) 0           decoder_stage4b_bn[0][0]         
__________________________________________________________________________________________________
final_conv (Conv2D)             (None, 384, 384, 1)  145         decoder_stage4b_relu[0][0]       
__________________________________________________________________________________________________
activation (Activation)         (None, 384, 384, 1)  0           final_conv[0][0]                 
__________________________________________________________________________________________________
dropout (Dropout)               (None, 384, 384, 1)  0           activation[0][0]                 
__________________________________________________________________________________________________
sigmoid (Activation)            (None, 384, 384, 1)  0           dropout[0][0]                    
==================================================================================================
Total params: 17,867,833
Trainable params: 7,169,617
Non-trainable params: 10,698,216
__________________________________________________________________________________________________
2025-06-19 12:41:34,297 INFO freeze_encoder=True
2025-06-19 12:41:34,301 INFO Trainable params: 7,169,617 | Non-trainable params: 10,698,216
…
poca 80  loss:0.4151, iou:0.4796 | val_loss:0.3158, val_iou:0.5626
2025-06-19 12:55:17,302 INFO baseline (supervised): Val Loss=0.3154, Val IoU=0.5636 | Test Loss=0.3097, Test IoU=0.5775
2025-06-19 12:55:17,302 INFO Entrenando arquitectura (supervised): pspnet
Model: "model_1"
__________________________________________________________________________________________________
Layer (type)                    Output Shape         Param #     Connected to                     
==================================================================================================
input_1 (InputLayer)            [(None, 384, 384, 3) 0                                            
__________________________________________________________________________________________________
stem_conv (Conv2D)              (None, 192, 192, 40) 1080        input_1[0][0]                    
__________________________________________________________________________________________________
stem_bn (BatchNormalization)    (None, 192, 192, 40) 160         stem_conv[0][0]                  
__________________________________________________________________________________________________
stem_activation (Activation)    (None, 192, 192, 40) 0           stem_bn[0][0]                    
__________________________________________________________________________________________________
block1a_dwconv (DepthwiseConv2D (None, 192, 192, 40) 360         stem_activation[0][0]            
__________________________________________________________________________________________________
block1a_bn (BatchNormalization) (None, 192, 192, 40) 160         block1a_dwconv[0][0]             
__________________________________________________________________________________________________
block1a_activation (Activation) (None, 192, 192, 40) 0           block1a_bn[0][0]                 
__________________________________________________________________________________________________
block1a_se_squeeze (GlobalAvera (None, 40)           0           block1a_activation[0][0]         
__________________________________________________________________________________________________
block1a_se_reshape (Reshape)    (None, 1, 1, 40)     0           block1a_se_squeeze[0][0]         
__________________________________________________________________________________________________
block1a_se_reduce (Conv2D)      (None, 1, 1, 10)     410         block1a_se_reshape[0][0]         
__________________________________________________________________________________________________
block1a_se_expand (Conv2D)      (None, 1, 1, 40)     440         block1a_se_reduce[0][0]          
__________________________________________________________________________________________________
block1a_se_excite (Multiply)    (None, 192, 192, 40) 0           block1a_activation[0][0]         
                                                                 block1a_se_expand[0][0]          
__________________________________________________________________________________________________
block1a_project_conv (Conv2D)   (None, 192, 192, 24) 960         block1a_se_excite[0][0]          
__________________________________________________________________________________________________
block1a_project_bn (BatchNormal (None, 192, 192, 24) 96          block1a_project_conv[0][0]       
__________________________________________________________________________________________________
block1b_dwconv (DepthwiseConv2D (None, 192, 192, 24) 216         block1a_project_bn[0][0]         
__________________________________________________________________________________________________
block1b_bn (BatchNormalization) (None, 192, 192, 24) 96          block1b_dwconv[0][0]             
__________________________________________________________________________________________________
block1b_activation (Activation) (None, 192, 192, 24) 0           block1b_bn[0][0]                 
__________________________________________________________________________________________________
block1b_se_squeeze (GlobalAvera (None, 24)           0           block1b_activation[0][0]         
__________________________________________________________________________________________________
block1b_se_reshape (Reshape)    (None, 1, 1, 24)     0           block1b_se_squeeze[0][0]         
__________________________________________________________________________________________________
block1b_se_reduce (Conv2D)      (None, 1, 1, 6)      150         block1b_se_reshape[0][0]         
__________________________________________________________________________________________________
block1b_se_expand (Conv2D)      (None, 1, 1, 24)     168         block1b_se_reduce[0][0]          
__________________________________________________________________________________________________
block1b_se_excite (Multiply)    (None, 192, 192, 24) 0           block1b_activation[0][0]         
                                                                 block1b_se_expand[0][0]          
__________________________________________________________________________________________________
block1b_project_conv (Conv2D)   (None, 192, 192, 24) 576         block1b_se_excite[0][0]          
__________________________________________________________________________________________________
block1b_project_bn (BatchNormal (None, 192, 192, 24) 96          block1b_project_conv[0][0]       
__________________________________________________________________________________________________
block1b_drop (FixedDropout)     (None, 192, 192, 24) 0           block1b_project_bn[0][0]         
__________________________________________________________________________________________________
block1b_add (Add)               (None, 192, 192, 24) 0           block1b_drop[0][0]               
                                                                 block1a_project_bn[0][0]         
__________________________________________________________________________________________________
block2a_expand_conv (Conv2D)    (None, 192, 192, 144 3456        block1b_add[0][0]                
__________________________________________________________________________________________________
block2a_expand_bn (BatchNormali (None, 192, 192, 144 576         block2a_expand_conv[0][0]        
__________________________________________________________________________________________________
block2a_expand_activation (Acti (None, 192, 192, 144 0           block2a_expand_bn[0][0]          
__________________________________________________________________________________________________
block2a_dwconv (DepthwiseConv2D (None, 96, 96, 144)  1296        block2a_expand_activation[0][0]  
__________________________________________________________________________________________________
block2a_bn (BatchNormalization) (None, 96, 96, 144)  576         block2a_dwconv[0][0]             
__________________________________________________________________________________________________
block2a_activation (Activation) (None, 96, 96, 144)  0           block2a_bn[0][0]                 
__________________________________________________________________________________________________
block2a_se_squeeze (GlobalAvera (None, 144)          0           block2a_activation[0][0]         
__________________________________________________________________________________________________
block2a_se_reshape (Reshape)    (None, 1, 1, 144)    0           block2a_se_squeeze[0][0]         
__________________________________________________________________________________________________
block2a_se_reduce (Conv2D)      (None, 1, 1, 6)      870         block2a_se_reshape[0][0]         
__________________________________________________________________________________________________
block2a_se_expand (Conv2D)      (None, 1, 1, 144)    1008        block2a_se_reduce[0][0]          
__________________________________________________________________________________________________
block2a_se_excite (Multiply)    (None, 96, 96, 144)  0           block2a_activation[0][0]         
                                                                 block2a_se_expand[0][0]          
__________________________________________________________________________________________________
block2a_project_conv (Conv2D)   (None, 96, 96, 32)   4608        block2a_se_excite[0][0]          
__________________________________________________________________________________________________
block2a_project_bn (BatchNormal (None, 96, 96, 32)   128         block2a_project_conv[0][0]       
__________________________________________________________________________________________________
block2b_expand_conv (Conv2D)    (None, 96, 96, 192)  6144        block2a_project_bn[0][0]         
__________________________________________________________________________________________________
block2b_expand_bn (BatchNormali (None, 96, 96, 192)  768         block2b_expand_conv[0][0]        
__________________________________________________________________________________________________
block2b_expand_activation (Acti (None, 96, 96, 192)  0           block2b_expand_bn[0][0]          
__________________________________________________________________________________________________
block2b_dwconv (DepthwiseConv2D (None, 96, 96, 192)  1728        block2b_expand_activation[0][0]  
__________________________________________________________________________________________________
block2b_bn (BatchNormalization) (None, 96, 96, 192)  768         block2b_dwconv[0][0]             
__________________________________________________________________________________________________
block2b_activation (Activation) (None, 96, 96, 192)  0           block2b_bn[0][0]                 
__________________________________________________________________________________________________
block2b_se_squeeze (GlobalAvera (None, 192)          0           block2b_activation[0][0]         
__________________________________________________________________________________________________
block2b_se_reshape (Reshape)    (None, 1, 1, 192)    0           block2b_se_squeeze[0][0]         
__________________________________________________________________________________________________
block2b_se_reduce (Conv2D)      (None, 1, 1, 8)      1544        block2b_se_reshape[0][0]         
__________________________________________________________________________________________________
block2b_se_expand (Conv2D)      (None, 1, 1, 192)    1728        block2b_se_reduce[0][0]          
__________________________________________________________________________________________________
block2b_se_excite (Multiply)    (None, 96, 96, 192)  0           block2b_activation[0][0]         
                                                                 block2b_se_expand[0][0]          
__________________________________________________________________________________________________
block2b_project_conv (Conv2D)   (None, 96, 96, 32)   6144        block2b_se_excite[0][0]          
__________________________________________________________________________________________________
block2b_project_bn (BatchNormal (None, 96, 96, 32)   128         block2b_project_conv[0][0]       
__________________________________________________________________________________________________
block2b_drop (FixedDropout)     (None, 96, 96, 32)   0           block2b_project_bn[0][0]         
__________________________________________________________________________________________________
block2b_add (Add)               (None, 96, 96, 32)   0           block2b_drop[0][0]               
                                                                 block2a_project_bn[0][0]         
__________________________________________________________________________________________________
block2c_expand_conv (Conv2D)    (None, 96, 96, 192)  6144        block2b_add[0][0]                
__________________________________________________________________________________________________
block2c_expand_bn (BatchNormali (None, 96, 96, 192)  768         block2c_expand_conv[0][0]        
__________________________________________________________________________________________________
block2c_expand_activation (Acti (None, 96, 96, 192)  0           block2c_expand_bn[0][0]          
__________________________________________________________________________________________________
block2c_dwconv (DepthwiseConv2D (None, 96, 96, 192)  1728        block2c_expand_activation[0][0]  
__________________________________________________________________________________________________
block2c_bn (BatchNormalization) (None, 96, 96, 192)  768         block2c_dwconv[0][0]             
__________________________________________________________________________________________________
block2c_activation (Activation) (None, 96, 96, 192)  0           block2c_bn[0][0]                 
__________________________________________________________________________________________________
block2c_se_squeeze (GlobalAvera (None, 192)          0           block2c_activation[0][0]         
__________________________________________________________________________________________________
block2c_se_reshape (Reshape)    (None, 1, 1, 192)    0           block2c_se_squeeze[0][0]         
__________________________________________________________________________________________________
block2c_se_reduce (Conv2D)      (None, 1, 1, 8)      1544        block2c_se_reshape[0][0]         
__________________________________________________________________________________________________
block2c_se_expand (Conv2D)      (None, 1, 1, 192)    1728        block2c_se_reduce[0][0]          
__________________________________________________________________________________________________
block2c_se_excite (Multiply)    (None, 96, 96, 192)  0           block2c_activation[0][0]         
                                                                 block2c_se_expand[0][0]          
__________________________________________________________________________________________________
block2c_project_conv (Conv2D)   (None, 96, 96, 32)   6144        block2c_se_excite[0][0]          
__________________________________________________________________________________________________
block2c_project_bn (BatchNormal (None, 96, 96, 32)   128         block2c_project_conv[0][0]       
__________________________________________________________________________________________________
block2c_drop (FixedDropout)     (None, 96, 96, 32)   0           block2c_project_bn[0][0]         
__________________________________________________________________________________________________
block2c_add (Add)               (None, 96, 96, 32)   0           block2c_drop[0][0]               
                                                                 block2b_add[0][0]                
__________________________________________________________________________________________________
block3a_expand_conv (Conv2D)    (None, 96, 96, 192)  6144        block2c_add[0][0]                
__________________________________________________________________________________________________
block3a_expand_bn (BatchNormali (None, 96, 96, 192)  768         block3a_expand_conv[0][0]        
__________________________________________________________________________________________________
block3a_expand_activation (Acti (None, 96, 96, 192)  0           block3a_expand_bn[0][0]          
__________________________________________________________________________________________________
block3a_dwconv (DepthwiseConv2D (None, 48, 48, 192)  4800        block3a_expand_activation[0][0]  
__________________________________________________________________________________________________
block3a_bn (BatchNormalization) (None, 48, 48, 192)  768         block3a_dwconv[0][0]             
__________________________________________________________________________________________________
block3a_activation (Activation) (None, 48, 48, 192)  0           block3a_bn[0][0]                 
__________________________________________________________________________________________________
block3a_se_squeeze (GlobalAvera (None, 192)          0           block3a_activation[0][0]         
__________________________________________________________________________________________________
block3a_se_reshape (Reshape)    (None, 1, 1, 192)    0           block3a_se_squeeze[0][0]         
__________________________________________________________________________________________________
block3a_se_reduce (Conv2D)      (None, 1, 1, 8)      1544        block3a_se_reshape[0][0]         
__________________________________________________________________________________________________
block3a_se_expand (Conv2D)      (None, 1, 1, 192)    1728        block3a_se_reduce[0][0]          
__________________________________________________________________________________________________
block3a_se_excite (Multiply)    (None, 48, 48, 192)  0           block3a_activation[0][0]         
                                                                 block3a_se_expand[0][0]          
__________________________________________________________________________________________________
block3a_project_conv (Conv2D)   (None, 48, 48, 48)   9216        block3a_se_excite[0][0]          
__________________________________________________________________________________________________
block3a_project_bn (BatchNormal (None, 48, 48, 48)   192         block3a_project_conv[0][0]       
__________________________________________________________________________________________________
block3b_expand_conv (Conv2D)    (None, 48, 48, 288)  13824       block3a_project_bn[0][0]         
__________________________________________________________________________________________________
block3b_expand_bn (BatchNormali (None, 48, 48, 288)  1152        block3b_expand_conv[0][0]        
__________________________________________________________________________________________________
block3b_expand_activation (Acti (None, 48, 48, 288)  0           block3b_expand_bn[0][0]          
__________________________________________________________________________________________________
block3b_dwconv (DepthwiseConv2D (None, 48, 48, 288)  7200        block3b_expand_activation[0][0]  
__________________________________________________________________________________________________
block3b_bn (BatchNormalization) (None, 48, 48, 288)  1152        block3b_dwconv[0][0]             
__________________________________________________________________________________________________
block3b_activation (Activation) (None, 48, 48, 288)  0           block3b_bn[0][0]                 
__________________________________________________________________________________________________
block3b_se_squeeze (GlobalAvera (None, 288)          0           block3b_activation[0][0]         
__________________________________________________________________________________________________
block3b_se_reshape (Reshape)    (None, 1, 1, 288)    0           block3b_se_squeeze[0][0]         
__________________________________________________________________________________________________
block3b_se_reduce (Conv2D)      (None, 1, 1, 12)     3468        block3b_se_reshape[0][0]         
__________________________________________________________________________________________________
block3b_se_expand (Conv2D)      (None, 1, 1, 288)    3744        block3b_se_reduce[0][0]          
__________________________________________________________________________________________________
block3b_se_excite (Multiply)    (None, 48, 48, 288)  0           block3b_activation[0][0]         
                                                                 block3b_se_expand[0][0]          
__________________________________________________________________________________________________
block3b_project_conv (Conv2D)   (None, 48, 48, 48)   13824       block3b_se_excite[0][0]          
__________________________________________________________________________________________________
block3b_project_bn (BatchNormal (None, 48, 48, 48)   192         block3b_project_conv[0][0]       
__________________________________________________________________________________________________
block3b_drop (FixedDropout)     (None, 48, 48, 48)   0           block3b_project_bn[0][0]         
__________________________________________________________________________________________________
block3b_add (Add)               (None, 48, 48, 48)   0           block3b_drop[0][0]               
                                                                 block3a_project_bn[0][0]         
__________________________________________________________________________________________________
block3c_expand_conv (Conv2D)    (None, 48, 48, 288)  13824       block3b_add[0][0]                
__________________________________________________________________________________________________
block3c_expand_bn (BatchNormali (None, 48, 48, 288)  1152        block3c_expand_conv[0][0]        
__________________________________________________________________________________________________
block3c_expand_activation (Acti (None, 48, 48, 288)  0           block3c_expand_bn[0][0]          
__________________________________________________________________________________________________
block3c_dwconv (DepthwiseConv2D (None, 48, 48, 288)  7200        block3c_expand_activation[0][0]  
__________________________________________________________________________________________________
block3c_bn (BatchNormalization) (None, 48, 48, 288)  1152        block3c_dwconv[0][0]             
__________________________________________________________________________________________________
block3c_activation (Activation) (None, 48, 48, 288)  0           block3c_bn[0][0]                 
__________________________________________________________________________________________________
block3c_se_squeeze (GlobalAvera (None, 288)          0           block3c_activation[0][0]         
__________________________________________________________________________________________________
block3c_se_reshape (Reshape)    (None, 1, 1, 288)    0           block3c_se_squeeze[0][0]         
__________________________________________________________________________________________________
block3c_se_reduce (Conv2D)      (None, 1, 1, 12)     3468        block3c_se_reshape[0][0]         
__________________________________________________________________________________________________
block3c_se_expand (Conv2D)      (None, 1, 1, 288)    3744        block3c_se_reduce[0][0]          
__________________________________________________________________________________________________
block3c_se_excite (Multiply)    (None, 48, 48, 288)  0           block3c_activation[0][0]         
                                                                 block3c_se_expand[0][0]          
__________________________________________________________________________________________________
block3c_project_conv (Conv2D)   (None, 48, 48, 48)   13824       block3c_se_excite[0][0]          
__________________________________________________________________________________________________
block3c_project_bn (BatchNormal (None, 48, 48, 48)   192         block3c_project_conv[0][0]       
__________________________________________________________________________________________________
block3c_drop (FixedDropout)     (None, 48, 48, 48)   0           block3c_project_bn[0][0]         
__________________________________________________________________________________________________
block3c_add (Add)               (None, 48, 48, 48)   0           block3c_drop[0][0]               
                                                                 block3b_add[0][0]                
__________________________________________________________________________________________________
block4a_expand_conv (Conv2D)    (None, 48, 48, 288)  13824       block3c_add[0][0]                
__________________________________________________________________________________________________
block4a_expand_bn (BatchNormali (None, 48, 48, 288)  1152        block4a_expand_conv[0][0]        
__________________________________________________________________________________________________
block4a_expand_activation (Acti (None, 48, 48, 288)  0           block4a_expand_bn[0][0]          
__________________________________________________________________________________________________
psp_level1_pooling (AveragePool (None, 1, 1, 288)    0           block4a_expand_activation[0][0]  
__________________________________________________________________________________________________
psp_level2_pooling (AveragePool (None, 2, 2, 288)    0           block4a_expand_activation[0][0]  
__________________________________________________________________________________________________
psp_level3_pooling (AveragePool (None, 3, 3, 288)    0           block4a_expand_activation[0][0]  
__________________________________________________________________________________________________
psp_level6_pooling (AveragePool (None, 6, 6, 288)    0           block4a_expand_activation[0][0]  
__________________________________________________________________________________________________
psp_level1_conv (Conv2D)        (None, 1, 1, 512)    147456      psp_level1_pooling[0][0]         
__________________________________________________________________________________________________
psp_level2_conv (Conv2D)        (None, 2, 2, 512)    147456      psp_level2_pooling[0][0]         
__________________________________________________________________________________________________
psp_level3_conv (Conv2D)        (None, 3, 3, 512)    147456      psp_level3_pooling[0][0]         
__________________________________________________________________________________________________
psp_level6_conv (Conv2D)        (None, 6, 6, 512)    147456      psp_level6_pooling[0][0]         
__________________________________________________________________________________________________
psp_level1_bn (BatchNormalizati (None, 1, 1, 512)    2048        psp_level1_conv[0][0]            
__________________________________________________________________________________________________
psp_level2_bn (BatchNormalizati (None, 2, 2, 512)    2048        psp_level2_conv[0][0]            
__________________________________________________________________________________________________
psp_level3_bn (BatchNormalizati (None, 3, 3, 512)    2048        psp_level3_conv[0][0]            
__________________________________________________________________________________________________
psp_level6_bn (BatchNormalizati (None, 6, 6, 512)    2048        psp_level6_conv[0][0]            
__________________________________________________________________________________________________
psp_level1_relu (Activation)    (None, 1, 1, 512)    0           psp_level1_bn[0][0]              
__________________________________________________________________________________________________
psp_level2_relu (Activation)    (None, 2, 2, 512)    0           psp_level2_bn[0][0]              
__________________________________________________________________________________________________
psp_level3_relu (Activation)    (None, 3, 3, 512)    0           psp_level3_bn[0][0]              
__________________________________________________________________________________________________
psp_level6_relu (Activation)    (None, 6, 6, 512)    0           psp_level6_bn[0][0]              
__________________________________________________________________________________________________
psp_level1_upsampling (UpSampli (None, 48, 48, 512)  0           psp_level1_relu[0][0]            
__________________________________________________________________________________________________
psp_level2_upsampling (UpSampli (None, 48, 48, 512)  0           psp_level2_relu[0][0]            
__________________________________________________________________________________________________
psp_level3_upsampling (UpSampli (None, 48, 48, 512)  0           psp_level3_relu[0][0]            
__________________________________________________________________________________________________
psp_level6_upsampling (UpSampli (None, 48, 48, 512)  0           psp_level6_relu[0][0]            
__________________________________________________________________________________________________
psp_concat (Concatenate)        (None, 48, 48, 2336) 0           block4a_expand_activation[0][0]  
                                                                 psp_level1_upsampling[0][0]      
                                                                 psp_level2_upsampling[0][0]      
                                                                 psp_level3_upsampling[0][0]      
                                                                 psp_level6_upsampling[0][0]      
__________________________________________________________________________________________________
aggregation_conv (Conv2D)       (None, 48, 48, 512)  1196032     psp_concat[0][0]                 
__________________________________________________________________________________________________
aggregation_bn (BatchNormalizat (None, 48, 48, 512)  2048        aggregation_conv[0][0]           
__________________________________________________________________________________________________
aggregation_relu (Activation)   (None, 48, 48, 512)  0           aggregation_bn[0][0]             
__________________________________________________________________________________________________
final_conv (Conv2D)             (None, 48, 48, 1)    4609        aggregation_relu[0][0]           
__________________________________________________________________________________________________
final_upsampling (UpSampling2D) (None, 384, 384, 1)  0           final_conv[0][0]                 
__________________________________________________________________________________________________
activation (Activation)         (None, 384, 384, 1)  0           final_upsampling[0][0]           
__________________________________________________________________________________________________
dropout (Dropout)               (None, 384, 384, 1)  0           activation[0][0]                 
__________________________________________________________________________________________________
sigmoid (Activation)            (None, 384, 384, 1)  0           dropout[0][0]                    
==================================================================================================
Total params: 1,985,343
Trainable params: 1,802,129
Non-trainable params: 183,214
__________________________________________________________________________________________________
2025-06-19 12:55:18,306 INFO freeze_encoder=True
2025-06-19 12:55:18,307 INFO Trainable params: 1,802,129 | Non-trainable params: 183,214
…
poca 80  loss:0.4606, iou:0.4211 | val_loss:0.4198, val_iou:0.4394
2025-06-19 13:01:06,105 INFO pspnet (supervised): Val Loss=0.4042, Val IoU=0.4619 | Test Loss=0.3966, Test IoU=0.4819
2025-06-19 13:01:06,105 INFO Entrenando arquitectura (supervised): fpn
Model: "model_1"
__________________________________________________________________________________________________
Layer (type)                    Output Shape         Param #     Connected to                     
==================================================================================================
input_1 (InputLayer)            [(None, 384, 384, 3) 0                                            
__________________________________________________________________________________________________
stem_conv (Conv2D)              (None, 192, 192, 40) 1080        input_1[0][0]                    
__________________________________________________________________________________________________
stem_bn (BatchNormalization)    (None, 192, 192, 40) 160         stem_conv[0][0]                  
__________________________________________________________________________________________________
stem_activation (Activation)    (None, 192, 192, 40) 0           stem_bn[0][0]                    
__________________________________________________________________________________________________
block1a_dwconv (DepthwiseConv2D (None, 192, 192, 40) 360         stem_activation[0][0]            
__________________________________________________________________________________________________
block1a_bn (BatchNormalization) (None, 192, 192, 40) 160         block1a_dwconv[0][0]             
__________________________________________________________________________________________________
block1a_activation (Activation) (None, 192, 192, 40) 0           block1a_bn[0][0]                 
__________________________________________________________________________________________________
block1a_se_squeeze (GlobalAvera (None, 40)           0           block1a_activation[0][0]         
__________________________________________________________________________________________________
block1a_se_reshape (Reshape)    (None, 1, 1, 40)     0           block1a_se_squeeze[0][0]         
__________________________________________________________________________________________________
block1a_se_reduce (Conv2D)      (None, 1, 1, 10)     410         block1a_se_reshape[0][0]         
__________________________________________________________________________________________________
block1a_se_expand (Conv2D)      (None, 1, 1, 40)     440         block1a_se_reduce[0][0]          
__________________________________________________________________________________________________
block1a_se_excite (Multiply)    (None, 192, 192, 40) 0           block1a_activation[0][0]         
                                                                 block1a_se_expand[0][0]          
__________________________________________________________________________________________________
block1a_project_conv (Conv2D)   (None, 192, 192, 24) 960         block1a_se_excite[0][0]          
__________________________________________________________________________________________________
block1a_project_bn (BatchNormal (None, 192, 192, 24) 96          block1a_project_conv[0][0]       
__________________________________________________________________________________________________
block1b_dwconv (DepthwiseConv2D (None, 192, 192, 24) 216         block1a_project_bn[0][0]         
__________________________________________________________________________________________________
block1b_bn (BatchNormalization) (None, 192, 192, 24) 96          block1b_dwconv[0][0]             
__________________________________________________________________________________________________
block1b_activation (Activation) (None, 192, 192, 24) 0           block1b_bn[0][0]                 
__________________________________________________________________________________________________
block1b_se_squeeze (GlobalAvera (None, 24)           0           block1b_activation[0][0]         
__________________________________________________________________________________________________
block1b_se_reshape (Reshape)    (None, 1, 1, 24)     0           block1b_se_squeeze[0][0]         
__________________________________________________________________________________________________
block1b_se_reduce (Conv2D)      (None, 1, 1, 6)      150         block1b_se_reshape[0][0]         
__________________________________________________________________________________________________
block1b_se_expand (Conv2D)      (None, 1, 1, 24)     168         block1b_se_reduce[0][0]          
__________________________________________________________________________________________________
block1b_se_excite (Multiply)    (None, 192, 192, 24) 0           block1b_activation[0][0]         
                                                                 block1b_se_expand[0][0]          
__________________________________________________________________________________________________
block1b_project_conv (Conv2D)   (None, 192, 192, 24) 576         block1b_se_excite[0][0]          
__________________________________________________________________________________________________
block1b_project_bn (BatchNormal (None, 192, 192, 24) 96          block1b_project_conv[0][0]       
__________________________________________________________________________________________________
block1b_drop (FixedDropout)     (None, 192, 192, 24) 0           block1b_project_bn[0][0]         
__________________________________________________________________________________________________
block1b_add (Add)               (None, 192, 192, 24) 0           block1b_drop[0][0]               
                                                                 block1a_project_bn[0][0]         
__________________________________________________________________________________________________
block2a_expand_conv (Conv2D)    (None, 192, 192, 144 3456        block1b_add[0][0]                
__________________________________________________________________________________________________
block2a_expand_bn (BatchNormali (None, 192, 192, 144 576         block2a_expand_conv[0][0]        
__________________________________________________________________________________________________
block2a_expand_activation (Acti (None, 192, 192, 144 0           block2a_expand_bn[0][0]          
__________________________________________________________________________________________________
block2a_dwconv (DepthwiseConv2D (None, 96, 96, 144)  1296        block2a_expand_activation[0][0]  
__________________________________________________________________________________________________
block2a_bn (BatchNormalization) (None, 96, 96, 144)  576         block2a_dwconv[0][0]             
__________________________________________________________________________________________________
block2a_activation (Activation) (None, 96, 96, 144)  0           block2a_bn[0][0]                 
__________________________________________________________________________________________________
block2a_se_squeeze (GlobalAvera (None, 144)          0           block2a_activation[0][0]         
__________________________________________________________________________________________________
block2a_se_reshape (Reshape)    (None, 1, 1, 144)    0           block2a_se_squeeze[0][0]         
__________________________________________________________________________________________________
block2a_se_reduce (Conv2D)      (None, 1, 1, 6)      870         block2a_se_reshape[0][0]         
__________________________________________________________________________________________________
block2a_se_expand (Conv2D)      (None, 1, 1, 144)    1008        block2a_se_reduce[0][0]          
__________________________________________________________________________________________________
block2a_se_excite (Multiply)    (None, 96, 96, 144)  0           block2a_activation[0][0]         
                                                                 block2a_se_expand[0][0]          
__________________________________________________________________________________________________
block2a_project_conv (Conv2D)   (None, 96, 96, 32)   4608        block2a_se_excite[0][0]          
__________________________________________________________________________________________________
block2a_project_bn (BatchNormal (None, 96, 96, 32)   128         block2a_project_conv[0][0]       
__________________________________________________________________________________________________
block2b_expand_conv (Conv2D)    (None, 96, 96, 192)  6144        block2a_project_bn[0][0]         
__________________________________________________________________________________________________
block2b_expand_bn (BatchNormali (None, 96, 96, 192)  768         block2b_expand_conv[0][0]        
__________________________________________________________________________________________________
block2b_expand_activation (Acti (None, 96, 96, 192)  0           block2b_expand_bn[0][0]          
__________________________________________________________________________________________________
block2b_dwconv (DepthwiseConv2D (None, 96, 96, 192)  1728        block2b_expand_activation[0][0]  
__________________________________________________________________________________________________
block2b_bn (BatchNormalization) (None, 96, 96, 192)  768         block2b_dwconv[0][0]             
__________________________________________________________________________________________________
block2b_activation (Activation) (None, 96, 96, 192)  0           block2b_bn[0][0]                 
__________________________________________________________________________________________________
block2b_se_squeeze (GlobalAvera (None, 192)          0           block2b_activation[0][0]         
__________________________________________________________________________________________________
block2b_se_reshape (Reshape)    (None, 1, 1, 192)    0           block2b_se_squeeze[0][0]         
__________________________________________________________________________________________________
block2b_se_reduce (Conv2D)      (None, 1, 1, 8)      1544        block2b_se_reshape[0][0]         
__________________________________________________________________________________________________
block2b_se_expand (Conv2D)      (None, 1, 1, 192)    1728        block2b_se_reduce[0][0]          
__________________________________________________________________________________________________
block2b_se_excite (Multiply)    (None, 96, 96, 192)  0           block2b_activation[0][0]         
                                                                 block2b_se_expand[0][0]          
__________________________________________________________________________________________________
block2b_project_conv (Conv2D)   (None, 96, 96, 32)   6144        block2b_se_excite[0][0]          
__________________________________________________________________________________________________
block2b_project_bn (BatchNormal (None, 96, 96, 32)   128         block2b_project_conv[0][0]       
__________________________________________________________________________________________________
block2b_drop (FixedDropout)     (None, 96, 96, 32)   0           block2b_project_bn[0][0]         
__________________________________________________________________________________________________
block2b_add (Add)               (None, 96, 96, 32)   0           block2b_drop[0][0]               
                                                                 block2a_project_bn[0][0]         
__________________________________________________________________________________________________
block2c_expand_conv (Conv2D)    (None, 96, 96, 192)  6144        block2b_add[0][0]                
__________________________________________________________________________________________________
block2c_expand_bn (BatchNormali (None, 96, 96, 192)  768         block2c_expand_conv[0][0]        
__________________________________________________________________________________________________
block2c_expand_activation (Acti (None, 96, 96, 192)  0           block2c_expand_bn[0][0]          
__________________________________________________________________________________________________
block2c_dwconv (DepthwiseConv2D (None, 96, 96, 192)  1728        block2c_expand_activation[0][0]  
__________________________________________________________________________________________________
block2c_bn (BatchNormalization) (None, 96, 96, 192)  768         block2c_dwconv[0][0]             
__________________________________________________________________________________________________
block2c_activation (Activation) (None, 96, 96, 192)  0           block2c_bn[0][0]                 
__________________________________________________________________________________________________
block2c_se_squeeze (GlobalAvera (None, 192)          0           block2c_activation[0][0]         
__________________________________________________________________________________________________
block2c_se_reshape (Reshape)    (None, 1, 1, 192)    0           block2c_se_squeeze[0][0]         
__________________________________________________________________________________________________
block2c_se_reduce (Conv2D)      (None, 1, 1, 8)      1544        block2c_se_reshape[0][0]         
__________________________________________________________________________________________________
block2c_se_expand (Conv2D)      (None, 1, 1, 192)    1728        block2c_se_reduce[0][0]          
__________________________________________________________________________________________________
block2c_se_excite (Multiply)    (None, 96, 96, 192)  0           block2c_activation[0][0]         
                                                                 block2c_se_expand[0][0]          
__________________________________________________________________________________________________
block2c_project_conv (Conv2D)   (None, 96, 96, 32)   6144        block2c_se_excite[0][0]          
__________________________________________________________________________________________________
block2c_project_bn (BatchNormal (None, 96, 96, 32)   128         block2c_project_conv[0][0]       
__________________________________________________________________________________________________
block2c_drop (FixedDropout)     (None, 96, 96, 32)   0           block2c_project_bn[0][0]         
__________________________________________________________________________________________________
block2c_add (Add)               (None, 96, 96, 32)   0           block2c_drop[0][0]               
                                                                 block2b_add[0][0]                
__________________________________________________________________________________________________
block3a_expand_conv (Conv2D)    (None, 96, 96, 192)  6144        block2c_add[0][0]                
__________________________________________________________________________________________________
block3a_expand_bn (BatchNormali (None, 96, 96, 192)  768         block3a_expand_conv[0][0]        
__________________________________________________________________________________________________
block3a_expand_activation (Acti (None, 96, 96, 192)  0           block3a_expand_bn[0][0]          
__________________________________________________________________________________________________
block3a_dwconv (DepthwiseConv2D (None, 48, 48, 192)  4800        block3a_expand_activation[0][0]  
__________________________________________________________________________________________________
block3a_bn (BatchNormalization) (None, 48, 48, 192)  768         block3a_dwconv[0][0]             
__________________________________________________________________________________________________
block3a_activation (Activation) (None, 48, 48, 192)  0           block3a_bn[0][0]                 
__________________________________________________________________________________________________
block3a_se_squeeze (GlobalAvera (None, 192)          0           block3a_activation[0][0]         
__________________________________________________________________________________________________
block3a_se_reshape (Reshape)    (None, 1, 1, 192)    0           block3a_se_squeeze[0][0]         
__________________________________________________________________________________________________
block3a_se_reduce (Conv2D)      (None, 1, 1, 8)      1544        block3a_se_reshape[0][0]         
__________________________________________________________________________________________________
block3a_se_expand (Conv2D)      (None, 1, 1, 192)    1728        block3a_se_reduce[0][0]          
__________________________________________________________________________________________________
block3a_se_excite (Multiply)    (None, 48, 48, 192)  0           block3a_activation[0][0]         
                                                                 block3a_se_expand[0][0]          
__________________________________________________________________________________________________
block3a_project_conv (Conv2D)   (None, 48, 48, 48)   9216        block3a_se_excite[0][0]          
__________________________________________________________________________________________________
block3a_project_bn (BatchNormal (None, 48, 48, 48)   192         block3a_project_conv[0][0]       
__________________________________________________________________________________________________
block3b_expand_conv (Conv2D)    (None, 48, 48, 288)  13824       block3a_project_bn[0][0]         
__________________________________________________________________________________________________
block3b_expand_bn (BatchNormali (None, 48, 48, 288)  1152        block3b_expand_conv[0][0]        
__________________________________________________________________________________________________
block3b_expand_activation (Acti (None, 48, 48, 288)  0           block3b_expand_bn[0][0]          
__________________________________________________________________________________________________
block3b_dwconv (DepthwiseConv2D (None, 48, 48, 288)  7200        block3b_expand_activation[0][0]  
__________________________________________________________________________________________________
block3b_bn (BatchNormalization) (None, 48, 48, 288)  1152        block3b_dwconv[0][0]             
__________________________________________________________________________________________________
block3b_activation (Activation) (None, 48, 48, 288)  0           block3b_bn[0][0]                 
__________________________________________________________________________________________________
block3b_se_squeeze (GlobalAvera (None, 288)          0           block3b_activation[0][0]         
__________________________________________________________________________________________________
block3b_se_reshape (Reshape)    (None, 1, 1, 288)    0           block3b_se_squeeze[0][0]         
__________________________________________________________________________________________________
block3b_se_reduce (Conv2D)      (None, 1, 1, 12)     3468        block3b_se_reshape[0][0]         
__________________________________________________________________________________________________
block3b_se_expand (Conv2D)      (None, 1, 1, 288)    3744        block3b_se_reduce[0][0]          
__________________________________________________________________________________________________
block3b_se_excite (Multiply)    (None, 48, 48, 288)  0           block3b_activation[0][0]         
                                                                 block3b_se_expand[0][0]          
__________________________________________________________________________________________________
block3b_project_conv (Conv2D)   (None, 48, 48, 48)   13824       block3b_se_excite[0][0]          
__________________________________________________________________________________________________
block3b_project_bn (BatchNormal (None, 48, 48, 48)   192         block3b_project_conv[0][0]       
__________________________________________________________________________________________________
block3b_drop (FixedDropout)     (None, 48, 48, 48)   0           block3b_project_bn[0][0]         
__________________________________________________________________________________________________
block3b_add (Add)               (None, 48, 48, 48)   0           block3b_drop[0][0]               
                                                                 block3a_project_bn[0][0]         
__________________________________________________________________________________________________
block3c_expand_conv (Conv2D)    (None, 48, 48, 288)  13824       block3b_add[0][0]                
__________________________________________________________________________________________________
block3c_expand_bn (BatchNormali (None, 48, 48, 288)  1152        block3c_expand_conv[0][0]        
__________________________________________________________________________________________________
block3c_expand_activation (Acti (None, 48, 48, 288)  0           block3c_expand_bn[0][0]          
__________________________________________________________________________________________________
block3c_dwconv (DepthwiseConv2D (None, 48, 48, 288)  7200        block3c_expand_activation[0][0]  
__________________________________________________________________________________________________
block3c_bn (BatchNormalization) (None, 48, 48, 288)  1152        block3c_dwconv[0][0]             
__________________________________________________________________________________________________
block3c_activation (Activation) (None, 48, 48, 288)  0           block3c_bn[0][0]                 
__________________________________________________________________________________________________
block3c_se_squeeze (GlobalAvera (None, 288)          0           block3c_activation[0][0]         
__________________________________________________________________________________________________
block3c_se_reshape (Reshape)    (None, 1, 1, 288)    0           block3c_se_squeeze[0][0]         
__________________________________________________________________________________________________
block3c_se_reduce (Conv2D)      (None, 1, 1, 12)     3468        block3c_se_reshape[0][0]         
__________________________________________________________________________________________________
block3c_se_expand (Conv2D)      (None, 1, 1, 288)    3744        block3c_se_reduce[0][0]          
__________________________________________________________________________________________________
block3c_se_excite (Multiply)    (None, 48, 48, 288)  0           block3c_activation[0][0]         
                                                                 block3c_se_expand[0][0]          
__________________________________________________________________________________________________
block3c_project_conv (Conv2D)   (None, 48, 48, 48)   13824       block3c_se_excite[0][0]          
__________________________________________________________________________________________________
block3c_project_bn (BatchNormal (None, 48, 48, 48)   192         block3c_project_conv[0][0]       
__________________________________________________________________________________________________
block3c_drop (FixedDropout)     (None, 48, 48, 48)   0           block3c_project_bn[0][0]         
__________________________________________________________________________________________________
block3c_add (Add)               (None, 48, 48, 48)   0           block3c_drop[0][0]               
                                                                 block3b_add[0][0]                
__________________________________________________________________________________________________
block4a_expand_conv (Conv2D)    (None, 48, 48, 288)  13824       block3c_add[0][0]                
__________________________________________________________________________________________________
block4a_expand_bn (BatchNormali (None, 48, 48, 288)  1152        block4a_expand_conv[0][0]        
__________________________________________________________________________________________________
block4a_expand_activation (Acti (None, 48, 48, 288)  0           block4a_expand_bn[0][0]          
__________________________________________________________________________________________________
block4a_dwconv (DepthwiseConv2D (None, 24, 24, 288)  2592        block4a_expand_activation[0][0]  
__________________________________________________________________________________________________
block4a_bn (BatchNormalization) (None, 24, 24, 288)  1152        block4a_dwconv[0][0]             
__________________________________________________________________________________________________
block4a_activation (Activation) (None, 24, 24, 288)  0           block4a_bn[0][0]                 
__________________________________________________________________________________________________
block4a_se_squeeze (GlobalAvera (None, 288)          0           block4a_activation[0][0]         
__________________________________________________________________________________________________
block4a_se_reshape (Reshape)    (None, 1, 1, 288)    0           block4a_se_squeeze[0][0]         
__________________________________________________________________________________________________
block4a_se_reduce (Conv2D)      (None, 1, 1, 12)     3468        block4a_se_reshape[0][0]         
__________________________________________________________________________________________________
block4a_se_expand (Conv2D)      (None, 1, 1, 288)    3744        block4a_se_reduce[0][0]          
__________________________________________________________________________________________________
block4a_se_excite (Multiply)    (None, 24, 24, 288)  0           block4a_activation[0][0]         
                                                                 block4a_se_expand[0][0]          
__________________________________________________________________________________________________
block4a_project_conv (Conv2D)   (None, 24, 24, 96)   27648       block4a_se_excite[0][0]          
__________________________________________________________________________________________________
block4a_project_bn (BatchNormal (None, 24, 24, 96)   384         block4a_project_conv[0][0]       
__________________________________________________________________________________________________
block4b_expand_conv (Conv2D)    (None, 24, 24, 576)  55296       block4a_project_bn[0][0]         
__________________________________________________________________________________________________
block4b_expand_bn (BatchNormali (None, 24, 24, 576)  2304        block4b_expand_conv[0][0]        
__________________________________________________________________________________________________
block4b_expand_activation (Acti (None, 24, 24, 576)  0           block4b_expand_bn[0][0]          
__________________________________________________________________________________________________
block4b_dwconv (DepthwiseConv2D (None, 24, 24, 576)  5184        block4b_expand_activation[0][0]  
__________________________________________________________________________________________________
block4b_bn (BatchNormalization) (None, 24, 24, 576)  2304        block4b_dwconv[0][0]             
__________________________________________________________________________________________________
block4b_activation (Activation) (None, 24, 24, 576)  0           block4b_bn[0][0]                 
__________________________________________________________________________________________________
block4b_se_squeeze (GlobalAvera (None, 576)          0           block4b_activation[0][0]         
__________________________________________________________________________________________________
block4b_se_reshape (Reshape)    (None, 1, 1, 576)    0           block4b_se_squeeze[0][0]         
__________________________________________________________________________________________________
block4b_se_reduce (Conv2D)      (None, 1, 1, 24)     13848       block4b_se_reshape[0][0]         
__________________________________________________________________________________________________
block4b_se_expand (Conv2D)      (None, 1, 1, 576)    14400       block4b_se_reduce[0][0]          
__________________________________________________________________________________________________
block4b_se_excite (Multiply)    (None, 24, 24, 576)  0           block4b_activation[0][0]         
                                                                 block4b_se_expand[0][0]          
__________________________________________________________________________________________________
block4b_project_conv (Conv2D)   (None, 24, 24, 96)   55296       block4b_se_excite[0][0]          
__________________________________________________________________________________________________
block4b_project_bn (BatchNormal (None, 24, 24, 96)   384         block4b_project_conv[0][0]       
__________________________________________________________________________________________________
block4b_drop (FixedDropout)     (None, 24, 24, 96)   0           block4b_project_bn[0][0]         
__________________________________________________________________________________________________
block4b_add (Add)               (None, 24, 24, 96)   0           block4b_drop[0][0]               
                                                                 block4a_project_bn[0][0]         
__________________________________________________________________________________________________
block4c_expand_conv (Conv2D)    (None, 24, 24, 576)  55296       block4b_add[0][0]                
__________________________________________________________________________________________________
block4c_expand_bn (BatchNormali (None, 24, 24, 576)  2304        block4c_expand_conv[0][0]        
…
block4e_se_squeeze (GlobalAvera (None, 576)          0           block4e_activation[0][0]         
__________________________________________________________________________________________________
block4e_se_reshape (Reshape)    (None, 1, 1, 576)    0           block4e_se_squeeze[0][0]         
__________________________________________________________________________________________________
block4e_se_reduce (Conv2D)      (None, 1, 1, 24)     13848       block4e_se_reshape[0][0]         
__________________________________________________________________________________________________
block4e_se_expand (Conv2D)      (None, 1, 1, 576)    14400       block4e_se_reduce[0][0]          
__________________________________________________________________________________________________
block4e_se_excite (Multiply)    (None, 24, 24, 576)  0           block4e_activation[0][0]         
                                                                 block4e_se_expand[0][0]          
__________________________________________________________________________________________________
block4e_project_conv (Conv2D)   (None, 24, 24, 96)   55296       block4e_se_excite[0][0]          
__________________________________________________________________________________________________
block4e_project_bn (BatchNormal (None, 24, 24, 96)   384         block4e_project_conv[0][0]       
__________________________________________________________________________________________________
block4e_drop (FixedDropout)     (None, 24, 24, 96)   0           block4e_project_bn[0][0]         
__________________________________________________________________________________________________
block4e_add (Add)               (None, 24, 24, 96)   0           block4e_drop[0][0]               
                                                                 block4d_add[0][0]                
__________________________________________________________________________________________________
block5a_expand_conv (Conv2D)    (None, 24, 24, 576)  55296       block4e_add[0][0]                
__________________________________________________________________________________________________
block5a_expand_bn (BatchNormali (None, 24, 24, 576)  2304        block5a_expand_conv[0][0]        
__________________________________________________________________________________________________
block5a_expand_activation (Acti (None, 24, 24, 576)  0           block5a_expand_bn[0][0]          
__________________________________________________________________________________________________
block5a_dwconv (DepthwiseConv2D (None, 24, 24, 576)  14400       block5a_expand_activation[0][0]  
__________________________________________________________________________________________________
block5a_bn (BatchNormalization) (None, 24, 24, 576)  2304        block5a_dwconv[0][0]             
__________________________________________________________________________________________________
block5a_activation (Activation) (None, 24, 24, 576)  0           block5a_bn[0][0]                 
__________________________________________________________________________________________________
block5a_se_squeeze (GlobalAvera (None, 576)          0           block5a_activation[0][0]         
__________________________________________________________________________________________________
block5a_se_reshape (Reshape)    (None, 1, 1, 576)    0           block5a_se_squeeze[0][0]         
__________________________________________________________________________________________________
block5a_se_reduce (Conv2D)      (None, 1, 1, 24)     13848       block5a_se_reshape[0][0]         
__________________________________________________________________________________________________
block5a_se_expand (Conv2D)      (None, 1, 1, 576)    14400       block5a_se_reduce[0][0]          
__________________________________________________________________________________________________
block5a_se_excite (Multiply)    (None, 24, 24, 576)  0           block5a_activation[0][0]         
                                                                 block5a_se_expand[0][0]          
__________________________________________________________________________________________________
block5a_project_conv (Conv2D)   (None, 24, 24, 136)  78336       block5a_se_excite[0][0]          
__________________________________________________________________________________________________
block5a_project_bn (BatchNormal (None, 24, 24, 136)  544         block5a_project_conv[0][0]       
__________________________________________________________________________________________________
block5b_expand_conv (Conv2D)    (None, 24, 24, 816)  110976      block5a_project_bn[0][0]         
__________________________________________________________________________________________________
block5b_expand_bn (BatchNormali (None, 24, 24, 816)  3264        block5b_expand_conv[0][0]        
__________________________________________________________________________________________________
block5b_expand_activation (Acti (None, 24, 24, 816)  0           block5b_expand_bn[0][0]          
__________________________________________________________________________________________________
block5b_dwconv (DepthwiseConv2D (None, 24, 24, 816)  20400       block5b_expand_activation[0][0]  
__________________________________________________________________________________________________
block5b_bn (BatchNormalization) (None, 24, 24, 816)  3264        block5b_dwconv[0][0]             
__________________________________________________________________________________________________
block5b_activation (Activation) (None, 24, 24, 816)  0           block5b_bn[0][0]                 
__________________________________________________________________________________________________
block5b_se_squeeze (GlobalAvera (None, 816)          0           block5b_activation[0][0]         
__________________________________________________________________________________________________
block5b_se_reshape (Reshape)    (None, 1, 1, 816)    0           block5b_se_squeeze[0][0]         
__________________________________________________________________________________________________
block5b_se_reduce (Conv2D)      (None, 1, 1, 34)     27778       block5b_se_reshape[0][0]         
__________________________________________________________________________________________________
block5b_se_expand (Conv2D)      (None, 1, 1, 816)    28560       block5b_se_reduce[0][0]          
__________________________________________________________________________________________________
block5b_se_excite (Multiply)    (None, 24, 24, 816)  0           block5b_activation[0][0]         
                                                                 block5b_se_expand[0][0]          
__________________________________________________________________________________________________
block5b_project_conv (Conv2D)   (None, 24, 24, 136)  110976      block5b_se_excite[0][0]          
__________________________________________________________________________________________________
block5b_project_bn (BatchNormal (None, 24, 24, 136)  544         block5b_project_conv[0][0]       
__________________________________________________________________________________________________
block5b_drop (FixedDropout)     (None, 24, 24, 136)  0           block5b_project_bn[0][0]         
__________________________________________________________________________________________________
block5b_add (Add)               (None, 24, 24, 136)  0           block5b_drop[0][0]               
                                                                 block5a_project_bn[0][0]         
__________________________________________________________________________________________________
block5c_expand_conv (Conv2D)    (None, 24, 24, 816)  110976      block5b_add[0][0]                
__________________________________________________________________________________________________
block5c_expand_bn (BatchNormali (None, 24, 24, 816)  3264        block5c_expand_conv[0][0]        
__________________________________________________________________________________________________
block5c_expand_activation (Acti (None, 24, 24, 816)  0           block5c_expand_bn[0][0]          
__________________________________________________________________________________________________
block5c_dwconv (DepthwiseConv2D (None, 24, 24, 816)  20400       block5c_expand_activation[0][0]  
__________________________________________________________________________________________________
block5c_bn (BatchNormalization) (None, 24, 24, 816)  3264        block5c_dwconv[0][0]             
__________________________________________________________________________________________________
block5c_activation (Activation) (None, 24, 24, 816)  0           block5c_bn[0][0]                 
__________________________________________________________________________________________________
block5c_se_squeeze (GlobalAvera (None, 816)          0           block5c_activation[0][0]         
__________________________________________________________________________________________________
block5c_se_reshape (Reshape)    (None, 1, 1, 816)    0           block5c_se_squeeze[0][0]         
__________________________________________________________________________________________________
block5c_se_reduce (Conv2D)      (None, 1, 1, 34)     27778       block5c_se_reshape[0][0]         
__________________________________________________________________________________________________
block5c_se_expand (Conv2D)      (None, 1, 1, 816)    28560       block5c_se_reduce[0][0]          
__________________________________________________________________________________________________
block5c_se_excite (Multiply)    (None, 24, 24, 816)  0           block5c_activation[0][0]         
                                                                 block5c_se_expand[0][0]          
__________________________________________________________________________________________________
block5c_project_conv (Conv2D)   (None, 24, 24, 136)  110976      block5c_se_excite[0][0]          
__________________________________________________________________________________________________
block5c_project_bn (BatchNormal (None, 24, 24, 136)  544         block5c_project_conv[0][0]       
__________________________________________________________________________________________________
block5c_drop (FixedDropout)     (None, 24, 24, 136)  0           block5c_project_bn[0][0]         
__________________________________________________________________________________________________
block5c_add (Add)               (None, 24, 24, 136)  0           block5c_drop[0][0]               
                                                                 block5b_add[0][0]                
__________________________________________________________________________________________________
block5d_expand_conv (Conv2D)    (None, 24, 24, 816)  110976      block5c_add[0][0]                
__________________________________________________________________________________________________
block5d_expand_bn (BatchNormali (None, 24, 24, 816)  3264        block5d_expand_conv[0][0]        
__________________________________________________________________________________________________
block5d_expand_activation (Acti (None, 24, 24, 816)  0           block5d_expand_bn[0][0]          
__________________________________________________________________________________________________
block5d_dwconv (DepthwiseConv2D (None, 24, 24, 816)  20400       block5d_expand_activation[0][0]  
__________________________________________________________________________________________________
block5d_bn (BatchNormalization) (None, 24, 24, 816)  3264        block5d_dwconv[0][0]             
__________________________________________________________________________________________________
block5d_activation (Activation) (None, 24, 24, 816)  0           block5d_bn[0][0]                 
__________________________________________________________________________________________________
block5d_se_squeeze (GlobalAvera (None, 816)          0           block5d_activation[0][0]         
__________________________________________________________________________________________________
block5d_se_reshape (Reshape)    (None, 1, 1, 816)    0           block5d_se_squeeze[0][0]         
__________________________________________________________________________________________________
block5d_se_reduce (Conv2D)      (None, 1, 1, 34)     27778       block5d_se_reshape[0][0]         
__________________________________________________________________________________________________
block5d_se_expand (Conv2D)      (None, 1, 1, 816)    28560       block5d_se_reduce[0][0]          
__________________________________________________________________________________________________
block5d_se_excite (Multiply)    (None, 24, 24, 816)  0           block5d_activation[0][0]         
                                                                 block5d_se_expand[0][0]          
__________________________________________________________________________________________________
block5d_project_conv (Conv2D)   (None, 24, 24, 136)  110976      block5d_se_excite[0][0]          
__________________________________________________________________________________________________
block5d_project_bn (BatchNormal (None, 24, 24, 136)  544         block5d_project_conv[0][0]       
__________________________________________________________________________________________________
block5d_drop (FixedDropout)     (None, 24, 24, 136)  0           block5d_project_bn[0][0]         
__________________________________________________________________________________________________
block5d_add (Add)               (None, 24, 24, 136)  0           block5d_drop[0][0]               
                                                                 block5c_add[0][0]                
__________________________________________________________________________________________________
block5e_expand_conv (Conv2D)    (None, 24, 24, 816)  110976      block5d_add[0][0]                
__________________________________________________________________________________________________
block5e_expand_bn (BatchNormali (None, 24, 24, 816)  3264        block5e_expand_conv[0][0]        
__________________________________________________________________________________________________
block5e_expand_activation (Acti (None, 24, 24, 816)  0           block5e_expand_bn[0][0]          
__________________________________________________________________________________________________
block5e_dwconv (DepthwiseConv2D (None, 24, 24, 816)  20400       block5e_expand_activation[0][0]  
__________________________________________________________________________________________________
block5e_bn (BatchNormalization) (None, 24, 24, 816)  3264        block5e_dwconv[0][0]             
__________________________________________________________________________________________________
block5e_activation (Activation) (None, 24, 24, 816)  0           block5e_bn[0][0]                 
__________________________________________________________________________________________________
block5e_se_squeeze (GlobalAvera (None, 816)          0           block5e_activation[0][0]         
__________________________________________________________________________________________________
block5e_se_reshape (Reshape)    (None, 1, 1, 816)    0           block5e_se_squeeze[0][0]         
__________________________________________________________________________________________________
block5e_se_reduce (Conv2D)      (None, 1, 1, 34)     27778       block5e_se_reshape[0][0]         
__________________________________________________________________________________________________
block5e_se_expand (Conv2D)      (None, 1, 1, 816)    28560       block5e_se_reduce[0][0]          
__________________________________________________________________________________________________
block5e_se_excite (Multiply)    (None, 24, 24, 816)  0           block5e_activation[0][0]         
                                                                 block5e_se_expand[0][0]          
__________________________________________________________________________________________________
block5e_project_conv (Conv2D)   (None, 24, 24, 136)  110976      block5e_se_excite[0][0]          
__________________________________________________________________________________________________
block5e_project_bn (BatchNormal (None, 24, 24, 136)  544         block5e_project_conv[0][0]       
__________________________________________________________________________________________________
block5e_drop (FixedDropout)     (None, 24, 24, 136)  0           block5e_project_bn[0][0]         
__________________________________________________________________________________________________
block5e_add (Add)               (None, 24, 24, 136)  0           block5e_drop[0][0]               
                                                                 block5d_add[0][0]                
__________________________________________________________________________________________________
block6a_expand_conv (Conv2D)    (None, 24, 24, 816)  110976      block5e_add[0][0]                
__________________________________________________________________________________________________
block6a_expand_bn (BatchNormali (None, 24, 24, 816)  3264        block6a_expand_conv[0][0]        
__________________________________________________________________________________________________
block6a_expand_activation (Acti (None, 24, 24, 816)  0           block6a_expand_bn[0][0]          
__________________________________________________________________________________________________
block6a_dwconv (DepthwiseConv2D (None, 12, 12, 816)  20400       block6a_expand_activation[0][0]  
__________________________________________________________________________________________________
block6a_bn (BatchNormalization) (None, 12, 12, 816)  3264        block6a_dwconv[0][0]             
__________________________________________________________________________________________________
block6a_activation (Activation) (None, 12, 12, 816)  0           block6a_bn[0][0]                 
__________________________________________________________________________________________________
block6a_se_squeeze (GlobalAvera (None, 816)          0           block6a_activation[0][0]         
__________________________________________________________________________________________________
block6a_se_reshape (Reshape)    (None, 1, 1, 816)    0           block6a_se_squeeze[0][0]         
__________________________________________________________________________________________________
block6a_se_reduce (Conv2D)      (None, 1, 1, 34)     27778       block6a_se_reshape[0][0]         
__________________________________________________________________________________________________
block6a_se_expand (Conv2D)      (None, 1, 1, 816)    28560       block6a_se_reduce[0][0]          
__________________________________________________________________________________________________
block6a_se_excite (Multiply)    (None, 12, 12, 816)  0           block6a_activation[0][0]         
                                                                 block6a_se_expand[0][0]          
__________________________________________________________________________________________________
block6a_project_conv (Conv2D)   (None, 12, 12, 232)  189312      block6a_se_excite[0][0]          
__________________________________________________________________________________________________
block6a_project_bn (BatchNormal (None, 12, 12, 232)  928         block6a_project_conv[0][0]       
__________________________________________________________________________________________________
block6b_expand_conv (Conv2D)    (None, 12, 12, 1392) 322944      block6a_project_bn[0][0]         
__________________________________________________________________________________________________
block6b_expand_bn (BatchNormali (None, 12, 12, 1392) 5568        block6b_expand_conv[0][0]        
__________________________________________________________________________________________________
block6b_expand_activation (Acti (None, 12, 12, 1392) 0           block6b_expand_bn[0][0]          
__________________________________________________________________________________________________
block6b_dwconv (DepthwiseConv2D (None, 12, 12, 1392) 34800       block6b_expand_activation[0][0]  
__________________________________________________________________________________________________
block6b_bn (BatchNormalization) (None, 12, 12, 1392) 5568        block6b_dwconv[0][0]             
__________________________________________________________________________________________________
block6b_activation (Activation) (None, 12, 12, 1392) 0           block6b_bn[0][0]                 
__________________________________________________________________________________________________
block6b_se_squeeze (GlobalAvera (None, 1392)         0           block6b_activation[0][0]         
__________________________________________________________________________________________________
block6b_se_reshape (Reshape)    (None, 1, 1, 1392)   0           block6b_se_squeeze[0][0]         
__________________________________________________________________________________________________
block6b_se_reduce (Conv2D)      (None, 1, 1, 58)     80794       block6b_se_reshape[0][0]         
__________________________________________________________________________________________________
block6b_se_expand (Conv2D)      (None, 1, 1, 1392)   82128       block6b_se_reduce[0][0]          
__________________________________________________________________________________________________
block6b_se_excite (Multiply)    (None, 12, 12, 1392) 0           block6b_activation[0][0]         
                                                                 block6b_se_expand[0][0]          
__________________________________________________________________________________________________
block6b_project_conv (Conv2D)   (None, 12, 12, 232)  322944      block6b_se_excite[0][0]          
__________________________________________________________________________________________________
block6b_project_bn (BatchNormal (None, 12, 12, 232)  928         block6b_project_conv[0][0]       
__________________________________________________________________________________________________
block6b_drop (FixedDropout)     (None, 12, 12, 232)  0           block6b_project_bn[0][0]         
__________________________________________________________________________________________________
block6b_add (Add)               (None, 12, 12, 232)  0           block6b_drop[0][0]               
                                                                 block6a_project_bn[0][0]         
__________________________________________________________________________________________________
block6c_expand_conv (Conv2D)    (None, 12, 12, 1392) 322944      block6b_add[0][0]                
__________________________________________________________________________________________________
block6c_expand_bn (BatchNormali (None, 12, 12, 1392) 5568        block6c_expand_conv[0][0]        
__________________________________________________________________________________________________
block6c_expand_activation (Acti (None, 12, 12, 1392) 0           block6c_expand_bn[0][0]          
__________________________________________________________________________________________________
block6c_dwconv (DepthwiseConv2D (None, 12, 12, 1392) 34800       block6c_expand_activation[0][0]  
__________________________________________________________________________________________________
block6c_bn (BatchNormalization) (None, 12, 12, 1392) 5568        block6c_dwconv[0][0]             
__________________________________________________________________________________________________
block6c_activation (Activation) (None, 12, 12, 1392) 0           block6c_bn[0][0]                 
__________________________________________________________________________________________________
block6c_se_squeeze (GlobalAvera (None, 1392)         0           block6c_activation[0][0]         
__________________________________________________________________________________________________
block6c_se_reshape (Reshape)    (None, 1, 1, 1392)   0           block6c_se_squeeze[0][0]         
__________________________________________________________________________________________________
block6c_se_reduce (Conv2D)      (None, 1, 1, 58)     80794       block6c_se_reshape[0][0]         
__________________________________________________________________________________________________
block6c_se_expand (Conv2D)      (None, 1, 1, 1392)   82128       block6c_se_reduce[0][0]          
__________________________________________________________________________________________________
block6c_se_excite (Multiply)    (None, 12, 12, 1392) 0           block6c_activation[0][0]         
                                                                 block6c_se_expand[0][0]          
__________________________________________________________________________________________________
block6c_project_conv (Conv2D)   (None, 12, 12, 232)  322944      block6c_se_excite[0][0]          
__________________________________________________________________________________________________
block6c_project_bn (BatchNormal (None, 12, 12, 232)  928         block6c_project_conv[0][0]       
__________________________________________________________________________________________________
block6c_drop (FixedDropout)     (None, 12, 12, 232)  0           block6c_project_bn[0][0]         
__________________________________________________________________________________________________
block6c_add (Add)               (None, 12, 12, 232)  0           block6c_drop[0][0]               
                                                                 block6b_add[0][0]                
__________________________________________________________________________________________________
block6d_expand_conv (Conv2D)    (None, 12, 12, 1392) 322944      block6c_add[0][0]                
__________________________________________________________________________________________________
block6d_expand_bn (BatchNormali (None, 12, 12, 1392) 5568        block6d_expand_conv[0][0]        
__________________________________________________________________________________________________
block6d_expand_activation (Acti (None, 12, 12, 1392) 0           block6d_expand_bn[0][0]          
__________________________________________________________________________________________________
block6d_dwconv (DepthwiseConv2D (None, 12, 12, 1392) 34800       block6d_expand_activation[0][0]  
__________________________________________________________________________________________________
block6d_bn (BatchNormalization) (None, 12, 12, 1392) 5568        block6d_dwconv[0][0]             
__________________________________________________________________________________________________
block6d_activation (Activation) (None, 12, 12, 1392) 0           block6d_bn[0][0]                 
__________________________________________________________________________________________________
block6d_se_squeeze (GlobalAvera (None, 1392)         0           block6d_activation[0][0]         
__________________________________________________________________________________________________
block6d_se_reshape (Reshape)    (None, 1, 1, 1392)   0           block6d_se_squeeze[0][0]         
__________________________________________________________________________________________________
block6d_se_reduce (Conv2D)      (None, 1, 1, 58)     80794       block6d_se_reshape[0][0]         
__________________________________________________________________________________________________
block6d_se_expand (Conv2D)      (None, 1, 1, 1392)   82128       block6d_se_reduce[0][0]          
__________________________________________________________________________________________________
block6d_se_excite (Multiply)    (None, 12, 12, 1392) 0           block6d_activation[0][0]         
                                                                 block6d_se_expand[0][0]          
__________________________________________________________________________________________________
block6d_project_conv (Conv2D)   (None, 12, 12, 232)  322944      block6d_se_excite[0][0]          
__________________________________________________________________________________________________
block6d_project_bn (BatchNormal (None, 12, 12, 232)  928         block6d_project_conv[0][0]       
__________________________________________________________________________________________________
block6d_drop (FixedDropout)     (None, 12, 12, 232)  0           block6d_project_bn[0][0]         
__________________________________________________________________________________________________
block6d_add (Add)               (None, 12, 12, 232)  0           block6d_drop[0][0]               
                                                                 block6c_add[0][0]                
__________________________________________________________________________________________________
block6e_expand_conv (Conv2D)    (None, 12, 12, 1392) 322944      block6d_add[0][0]                
__________________________________________________________________________________________________
block6e_expand_bn (BatchNormali (None, 12, 12, 1392) 5568        block6e_expand_conv[0][0]        
__________________________________________________________________________________________________
block6e_expand_activation (Acti (None, 12, 12, 1392) 0           block6e_expand_bn[0][0]          
__________________________________________________________________________________________________
block6e_dwconv (DepthwiseConv2D (None, 12, 12, 1392) 34800       block6e_expand_activation[0][0]  
__________________________________________________________________________________________________
block6e_bn (BatchNormalization) (None, 12, 12, 1392) 5568        block6e_dwconv[0][0]             
__________________________________________________________________________________________________
block6e_activation (Activation) (None, 12, 12, 1392) 0           block6e_bn[0][0]                 
__________________________________________________________________________________________________
block6e_se_squeeze (GlobalAvera (None, 1392)         0           block6e_activation[0][0]         
__________________________________________________________________________________________________
block6e_se_reshape (Reshape)    (None, 1, 1, 1392)   0           block6e_se_squeeze[0][0]         
__________________________________________________________________________________________________
block6e_se_reduce (Conv2D)      (None, 1, 1, 58)     80794       block6e_se_reshape[0][0]         
__________________________________________________________________________________________________
block6e_se_expand (Conv2D)      (None, 1, 1, 1392)   82128       block6e_se_reduce[0][0]          
__________________________________________________________________________________________________
block6e_se_excite (Multiply)    (None, 12, 12, 1392) 0           block6e_activation[0][0]         
                                                                 block6e_se_expand[0][0]          
__________________________________________________________________________________________________
block6e_project_conv (Conv2D)   (None, 12, 12, 232)  322944      block6e_se_excite[0][0]          
__________________________________________________________________________________________________
block6e_project_bn (BatchNormal (None, 12, 12, 232)  928         block6e_project_conv[0][0]       
__________________________________________________________________________________________________
block6e_drop (FixedDropout)     (None, 12, 12, 232)  0           block6e_project_bn[0][0]         
__________________________________________________________________________________________________
block6e_add (Add)               (None, 12, 12, 232)  0           block6e_drop[0][0]               
                                                                 block6d_add[0][0]                
__________________________________________________________________________________________________
block6f_expand_conv (Conv2D)    (None, 12, 12, 1392) 322944      block6e_add[0][0]                
__________________________________________________________________________________________________
block6f_expand_bn (BatchNormali (None, 12, 12, 1392) 5568        block6f_expand_conv[0][0]        
__________________________________________________________________________________________________
block6f_expand_activation (Acti (None, 12, 12, 1392) 0           block6f_expand_bn[0][0]          
__________________________________________________________________________________________________
block6f_dwconv (DepthwiseConv2D (None, 12, 12, 1392) 34800       block6f_expand_activation[0][0]  
__________________________________________________________________________________________________
block6f_bn (BatchNormalization) (None, 12, 12, 1392) 5568        block6f_dwconv[0][0]             
__________________________________________________________________________________________________
block6f_activation (Activation) (None, 12, 12, 1392) 0           block6f_bn[0][0]                 
__________________________________________________________________________________________________
block6f_se_squeeze (GlobalAvera (None, 1392)         0           block6f_activation[0][0]         
__________________________________________________________________________________________________
block6f_se_reshape (Reshape)    (None, 1, 1, 1392)   0           block6f_se_squeeze[0][0]         
__________________________________________________________________________________________________
block6f_se_reduce (Conv2D)      (None, 1, 1, 58)     80794       block6f_se_reshape[0][0]         
__________________________________________________________________________________________________
block6f_se_expand (Conv2D)      (None, 1, 1, 1392)   82128       block6f_se_reduce[0][0]          
__________________________________________________________________________________________________
block6f_se_excite (Multiply)    (None, 12, 12, 1392) 0           block6f_activation[0][0]         
                                                                 block6f_se_expand[0][0]          
__________________________________________________________________________________________________
block6f_project_conv (Conv2D)   (None, 12, 12, 232)  322944      block6f_se_excite[0][0]          
__________________________________________________________________________________________________
block6f_project_bn (BatchNormal (None, 12, 12, 232)  928         block6f_project_conv[0][0]       
__________________________________________________________________________________________________
block6f_drop (FixedDropout)     (None, 12, 12, 232)  0           block6f_project_bn[0][0]         
__________________________________________________________________________________________________
block6f_add (Add)               (None, 12, 12, 232)  0           block6f_drop[0][0]               
                                                                 block6e_add[0][0]                
__________________________________________________________________________________________________
block7a_expand_conv (Conv2D)    (None, 12, 12, 1392) 322944      block6f_add[0][0]                
__________________________________________________________________________________________________
block7a_expand_bn (BatchNormali (None, 12, 12, 1392) 5568        block7a_expand_conv[0][0]        
__________________________________________________________________________________________________
block7a_expand_activation (Acti (None, 12, 12, 1392) 0           block7a_expand_bn[0][0]          
__________________________________________________________________________________________________
block7a_dwconv (DepthwiseConv2D (None, 12, 12, 1392) 12528       block7a_expand_activation[0][0]  
__________________________________________________________________________________________________
block7a_bn (BatchNormalization) (None, 12, 12, 1392) 5568        block7a_dwconv[0][0]             
__________________________________________________________________________________________________
block7a_activation (Activation) (None, 12, 12, 1392) 0           block7a_bn[0][0]                 
__________________________________________________________________________________________________
block7a_se_squeeze (GlobalAvera (None, 1392)         0           block7a_activation[0][0]         
__________________________________________________________________________________________________
block7a_se_reshape (Reshape)    (None, 1, 1, 1392)   0           block7a_se_squeeze[0][0]         
__________________________________________________________________________________________________
block7a_se_reduce (Conv2D)      (None, 1, 1, 58)     80794       block7a_se_reshape[0][0]         
__________________________________________________________________________________________________
block7a_se_expand (Conv2D)      (None, 1, 1, 1392)   82128       block7a_se_reduce[0][0]          
__________________________________________________________________________________________________
block7a_se_excite (Multiply)    (None, 12, 12, 1392) 0           block7a_activation[0][0]         
                                                                 block7a_se_expand[0][0]          
__________________________________________________________________________________________________
block7a_project_conv (Conv2D)   (None, 12, 12, 384)  534528      block7a_se_excite[0][0]          
__________________________________________________________________________________________________
block7a_project_bn (BatchNormal (None, 12, 12, 384)  1536        block7a_project_conv[0][0]       
__________________________________________________________________________________________________
block7b_expand_conv (Conv2D)    (None, 12, 12, 2304) 884736      block7a_project_bn[0][0]         
__________________________________________________________________________________________________
block7b_expand_bn (BatchNormali (None, 12, 12, 2304) 9216        block7b_expand_conv[0][0]        
__________________________________________________________________________________________________
block7b_expand_activation (Acti (None, 12, 12, 2304) 0           block7b_expand_bn[0][0]          
__________________________________________________________________________________________________
block7b_dwconv (DepthwiseConv2D (None, 12, 12, 2304) 20736       block7b_expand_activation[0][0]  
__________________________________________________________________________________________________
block7b_bn (BatchNormalization) (None, 12, 12, 2304) 9216        block7b_dwconv[0][0]             
__________________________________________________________________________________________________
block7b_activation (Activation) (None, 12, 12, 2304) 0           block7b_bn[0][0]                 
__________________________________________________________________________________________________
block7b_se_squeeze (GlobalAvera (None, 2304)         0           block7b_activation[0][0]         
__________________________________________________________________________________________________
block7b_se_reshape (Reshape)    (None, 1, 1, 2304)   0           block7b_se_squeeze[0][0]         
__________________________________________________________________________________________________
block7b_se_reduce (Conv2D)      (None, 1, 1, 96)     221280      block7b_se_reshape[0][0]         
__________________________________________________________________________________________________
block7b_se_expand (Conv2D)      (None, 1, 1, 2304)   223488      block7b_se_reduce[0][0]          
__________________________________________________________________________________________________
block7b_se_excite (Multiply)    (None, 12, 12, 2304) 0           block7b_activation[0][0]         
                                                                 block7b_se_expand[0][0]          
__________________________________________________________________________________________________
block7b_project_conv (Conv2D)   (None, 12, 12, 384)  884736      block7b_se_excite[0][0]          
__________________________________________________________________________________________________
block7b_project_bn (BatchNormal (None, 12, 12, 384)  1536        block7b_project_conv[0][0]       
__________________________________________________________________________________________________
block7b_drop (FixedDropout)     (None, 12, 12, 384)  0           block7b_project_bn[0][0]         
__________________________________________________________________________________________________
block7b_add (Add)               (None, 12, 12, 384)  0           block7b_drop[0][0]               
                                                                 block7a_project_bn[0][0]         
__________________________________________________________________________________________________
top_conv (Conv2D)               (None, 12, 12, 1536) 589824      block7b_add[0][0]                
__________________________________________________________________________________________________
top_bn (BatchNormalization)     (None, 12, 12, 1536) 6144        top_conv[0][0]                   
__________________________________________________________________________________________________
top_activation (Activation)     (None, 12, 12, 1536) 0           top_bn[0][0]                     
__________________________________________________________________________________________________
fpn_stage_p5_pre_conv (Conv2D)  (None, 12, 12, 256)  393472      top_activation[0][0]             
__________________________________________________________________________________________________
fpn_stage_p5_upsampling (UpSamp (None, 24, 24, 256)  0           fpn_stage_p5_pre_conv[0][0]      
__________________________________________________________________________________________________
fpn_stage_p5_conv (Conv2D)      (None, 24, 24, 256)  209152      block6a_expand_activation[0][0]  
__________________________________________________________________________________________________
fpn_stage_p5_add (Add)          (None, 24, 24, 256)  0           fpn_stage_p5_upsampling[0][0]    
                                                                 fpn_stage_p5_conv[0][0]          
__________________________________________________________________________________________________
fpn_stage_p4_upsampling (UpSamp (None, 48, 48, 256)  0           fpn_stage_p5_add[0][0]           
__________________________________________________________________________________________________
fpn_stage_p4_conv (Conv2D)      (None, 48, 48, 256)  73984       block4a_expand_activation[0][0]  
__________________________________________________________________________________________________
fpn_stage_p4_add (Add)          (None, 48, 48, 256)  0           fpn_stage_p4_upsampling[0][0]    
                                                                 fpn_stage_p4_conv[0][0]          
__________________________________________________________________________________________________
fpn_stage_p3_upsampling (UpSamp (None, 96, 96, 256)  0           fpn_stage_p4_add[0][0]           
__________________________________________________________________________________________________
fpn_stage_p3_conv (Conv2D)      (None, 96, 96, 256)  49408       block3a_expand_activation[0][0]  
__________________________________________________________________________________________________
fpn_stage_p3_add (Add)          (None, 96, 96, 256)  0           fpn_stage_p3_upsampling[0][0]    
                                                                 fpn_stage_p3_conv[0][0]          
__________________________________________________________________________________________________
fpn_stage_p2_upsampling (UpSamp (None, 192, 192, 256 0           fpn_stage_p3_add[0][0]           
__________________________________________________________________________________________________
fpn_stage_p2_conv (Conv2D)      (None, 192, 192, 256 37120       block2a_expand_activation[0][0]  
__________________________________________________________________________________________________
fpn_stage_p2_add (Add)          (None, 192, 192, 256 0           fpn_stage_p2_upsampling[0][0]    
                                                                 fpn_stage_p2_conv[0][0]          
__________________________________________________________________________________________________
segm_stage3a_conv (Conv2D)      (None, 96, 96, 128)  294912      fpn_stage_p3_add[0][0]           
__________________________________________________________________________________________________
segm_stage4a_conv (Conv2D)      (None, 48, 48, 128)  294912      fpn_stage_p4_add[0][0]           
__________________________________________________________________________________________________
segm_stage5a_conv (Conv2D)      (None, 24, 24, 128)  294912      fpn_stage_p5_add[0][0]           
__________________________________________________________________________________________________
segm_stage2a_conv (Conv2D)      (None, 192, 192, 128 294912      fpn_stage_p2_add[0][0]           
__________________________________________________________________________________________________
segm_stage3a_bn (BatchNormaliza (None, 96, 96, 128)  512         segm_stage3a_conv[0][0]          
__________________________________________________________________________________________________
segm_stage4a_bn (BatchNormaliza (None, 48, 48, 128)  512         segm_stage4a_conv[0][0]          
__________________________________________________________________________________________________
segm_stage5a_bn (BatchNormaliza (None, 24, 24, 128)  512         segm_stage5a_conv[0][0]          
__________________________________________________________________________________________________
segm_stage2a_bn (BatchNormaliza (None, 192, 192, 128 512         segm_stage2a_conv[0][0]          
__________________________________________________________________________________________________
segm_stage3a_relu (Activation)  (None, 96, 96, 128)  0           segm_stage3a_bn[0][0]            
__________________________________________________________________________________________________
segm_stage4a_relu (Activation)  (None, 48, 48, 128)  0           segm_stage4a_bn[0][0]            
__________________________________________________________________________________________________
segm_stage5a_relu (Activation)  (None, 24, 24, 128)  0           segm_stage5a_bn[0][0]            
__________________________________________________________________________________________________
segm_stage2a_relu (Activation)  (None, 192, 192, 128 0           segm_stage2a_bn[0][0]            
__________________________________________________________________________________________________
segm_stage3b_conv (Conv2D)      (None, 96, 96, 128)  147456      segm_stage3a_relu[0][0]          
__________________________________________________________________________________________________
segm_stage4b_conv (Conv2D)      (None, 48, 48, 128)  147456      segm_stage4a_relu[0][0]          
__________________________________________________________________________________________________
segm_stage5b_conv (Conv2D)      (None, 24, 24, 128)  147456      segm_stage5a_relu[0][0]          
__________________________________________________________________________________________________
segm_stage2b_conv (Conv2D)      (None, 192, 192, 128 147456      segm_stage2a_relu[0][0]          
__________________________________________________________________________________________________
segm_stage3b_bn (BatchNormaliza (None, 96, 96, 128)  512         segm_stage3b_conv[0][0]          
__________________________________________________________________________________________________
segm_stage4b_bn (BatchNormaliza (None, 48, 48, 128)  512         segm_stage4b_conv[0][0]          
__________________________________________________________________________________________________
segm_stage5b_bn (BatchNormaliza (None, 24, 24, 128)  512         segm_stage5b_conv[0][0]          
__________________________________________________________________________________________________
segm_stage2b_bn (BatchNormaliza (None, 192, 192, 128 512         segm_stage2b_conv[0][0]          
__________________________________________________________________________________________________
segm_stage3b_relu (Activation)  (None, 96, 96, 128)  0           segm_stage3b_bn[0][0]            
__________________________________________________________________________________________________
segm_stage4b_relu (Activation)  (None, 48, 48, 128)  0           segm_stage4b_bn[0][0]            
__________________________________________________________________________________________________
segm_stage5b_relu (Activation)  (None, 24, 24, 128)  0           segm_stage5b_bn[0][0]            
__________________________________________________________________________________________________
segm_stage2b_relu (Activation)  (None, 192, 192, 128 0           segm_stage2b_bn[0][0]            
__________________________________________________________________________________________________
upsampling_stage3 (UpSampling2D (None, 192, 192, 128 0           segm_stage3b_relu[0][0]          
…
